{
  "nodes": [
    {
      "op": "null", 
      "name": "data", 
      "inputs": []
    }, 
    {
      "op": "Reshape", 
      "name": "reshape0", 
      "attr": {"shape": "(0, 0, 1, 1)"}, 
      "inputs": [[0, 0, 0]]
    }, 
    {
      "op": "null", 
      "name": "conv0_weight", 
      "attr": {
        "kernel": "(5, 5)", 
        "no_bias": "True", 
        "num_filter": "256"
      }, 
      "inputs": []
    }, 
    {
      "op": "Deconvolution", 
      "name": "conv0", 
      "attr": {
        "kernel": "(5, 5)", 
        "no_bias": "True", 
        "num_filter": "256"
      }, 
      "inputs": [[1, 0, 0], [2, 0, 0]]
    }, 
    {
      "op": "null", 
      "name": "dense0__layer_0_batch_norm_gamma", 
      "attr": {"eps": "0.0001"}, 
      "inputs": []
    }, 
    {
      "op": "null", 
      "name": "dense0__layer_0_batch_norm_beta", 
      "attr": {"eps": "0.0001"}, 
      "inputs": []
    }, 
    {
      "op": "null", 
      "name": "dense0__layer_0_batch_norm_moving_mean", 
      "attr": {
        "__init__": "[\"zero\", {}]", 
        "eps": "0.0001"
      }, 
      "inputs": []
    }, 
    {
      "op": "null", 
      "name": "dense0__layer_0_batch_norm_moving_var", 
      "attr": {
        "__init__": "[\"one\", {}]", 
        "eps": "0.0001"
      }, 
      "inputs": []
    }, 
    {
      "op": "BatchNorm", 
      "name": "dense0__layer_0_batch_norm", 
      "attr": {"eps": "0.0001"}, 
      "inputs": [[3, 0, 0], [4, 0, 0], [5, 0, 0], [6, 0, 1], [7, 0, 1]]
    }, 
    {
      "op": "Activation", 
      "name": "dense0__layer_0_relu", 
      "attr": {"act_type": "relu"}, 
      "inputs": [[8, 0, 0]]
    }, 
    {
      "op": "null", 
      "name": "dense0__layer_0_conv_weight", 
      "attr": {
        "kernel": "(3, 3)", 
        "no_bias": "True", 
        "num_filter": "8", 
        "pad": "(1, 1)", 
        "stride": "(1, 1)"
      }, 
      "inputs": []
    }, 
    {
      "op": "Convolution", 
      "name": "dense0__layer_0_conv", 
      "attr": {
        "kernel": "(3, 3)", 
        "no_bias": "True", 
        "num_filter": "8", 
        "pad": "(1, 1)", 
        "stride": "(1, 1)"
      }, 
      "inputs": [[9, 0, 0], [10, 0, 0]]
    }, 
    {
      "op": "Concat", 
      "name": "dense0__concat_0", 
      "attr": {"num_args": "2"}, 
      "inputs": [[3, 0, 0], [11, 0, 0]]
    }, 
    {
      "op": "null", 
      "name": "dense0__layer_1_batch_norm_gamma", 
      "attr": {"eps": "0.0001"}, 
      "inputs": []
    }, 
    {
      "op": "null", 
      "name": "dense0__layer_1_batch_norm_beta", 
      "attr": {"eps": "0.0001"}, 
      "inputs": []
    }, 
    {
      "op": "null", 
      "name": "dense0__layer_1_batch_norm_moving_mean", 
      "attr": {
        "__init__": "[\"zero\", {}]", 
        "eps": "0.0001"
      }, 
      "inputs": []
    }, 
    {
      "op": "null", 
      "name": "dense0__layer_1_batch_norm_moving_var", 
      "attr": {
        "__init__": "[\"one\", {}]", 
        "eps": "0.0001"
      }, 
      "inputs": []
    }, 
    {
      "op": "BatchNorm", 
      "name": "dense0__layer_1_batch_norm", 
      "attr": {"eps": "0.0001"}, 
      "inputs": [[12, 0, 0], [13, 0, 0], [14, 0, 0], [15, 0, 1], [16, 0, 1]]
    }, 
    {
      "op": "Activation", 
      "name": "dense0__layer_1_relu", 
      "attr": {"act_type": "relu"}, 
      "inputs": [[17, 0, 0]]
    }, 
    {
      "op": "null", 
      "name": "dense0__layer_1_conv_weight", 
      "attr": {
        "kernel": "(3, 3)", 
        "no_bias": "True", 
        "num_filter": "8", 
        "pad": "(1, 1)", 
        "stride": "(1, 1)"
      }, 
      "inputs": []
    }, 
    {
      "op": "Convolution", 
      "name": "dense0__layer_1_conv", 
      "attr": {
        "kernel": "(3, 3)", 
        "no_bias": "True", 
        "num_filter": "8", 
        "pad": "(1, 1)", 
        "stride": "(1, 1)"
      }, 
      "inputs": [[18, 0, 0], [19, 0, 0]]
    }, 
    {
      "op": "Concat", 
      "name": "dense0__concat_1", 
      "attr": {"num_args": "2"}, 
      "inputs": [[12, 0, 0], [20, 0, 0]]
    }, 
    {
      "op": "null", 
      "name": "dense0__layer_2_batch_norm_gamma", 
      "attr": {"eps": "0.0001"}, 
      "inputs": []
    }, 
    {
      "op": "null", 
      "name": "dense0__layer_2_batch_norm_beta", 
      "attr": {"eps": "0.0001"}, 
      "inputs": []
    }, 
    {
      "op": "null", 
      "name": "dense0__layer_2_batch_norm_moving_mean", 
      "attr": {
        "__init__": "[\"zero\", {}]", 
        "eps": "0.0001"
      }, 
      "inputs": []
    }, 
    {
      "op": "null", 
      "name": "dense0__layer_2_batch_norm_moving_var", 
      "attr": {
        "__init__": "[\"one\", {}]", 
        "eps": "0.0001"
      }, 
      "inputs": []
    }, 
    {
      "op": "BatchNorm", 
      "name": "dense0__layer_2_batch_norm", 
      "attr": {"eps": "0.0001"}, 
      "inputs": [[21, 0, 0], [22, 0, 0], [23, 0, 0], [24, 0, 1], [25, 0, 1]]
    }, 
    {
      "op": "Activation", 
      "name": "dense0__layer_2_relu", 
      "attr": {"act_type": "relu"}, 
      "inputs": [[26, 0, 0]]
    }, 
    {
      "op": "null", 
      "name": "dense0__layer_2_conv_weight", 
      "attr": {
        "kernel": "(3, 3)", 
        "no_bias": "True", 
        "num_filter": "8", 
        "pad": "(1, 1)", 
        "stride": "(1, 1)"
      }, 
      "inputs": []
    }, 
    {
      "op": "Convolution", 
      "name": "dense0__layer_2_conv", 
      "attr": {
        "kernel": "(3, 3)", 
        "no_bias": "True", 
        "num_filter": "8", 
        "pad": "(1, 1)", 
        "stride": "(1, 1)"
      }, 
      "inputs": [[27, 0, 0], [28, 0, 0]]
    }, 
    {
      "op": "Concat", 
      "name": "dense0__concat_2", 
      "attr": {"num_args": "2"}, 
      "inputs": [[21, 0, 0], [29, 0, 0]]
    }, 
    {
      "op": "null", 
      "name": "dense0__layer_3_batch_norm_gamma", 
      "attr": {"eps": "0.0001"}, 
      "inputs": []
    }, 
    {
      "op": "null", 
      "name": "dense0__layer_3_batch_norm_beta", 
      "attr": {"eps": "0.0001"}, 
      "inputs": []
    }, 
    {
      "op": "null", 
      "name": "dense0__layer_3_batch_norm_moving_mean", 
      "attr": {
        "__init__": "[\"zero\", {}]", 
        "eps": "0.0001"
      }, 
      "inputs": []
    }, 
    {
      "op": "null", 
      "name": "dense0__layer_3_batch_norm_moving_var", 
      "attr": {
        "__init__": "[\"one\", {}]", 
        "eps": "0.0001"
      }, 
      "inputs": []
    }, 
    {
      "op": "BatchNorm", 
      "name": "dense0__layer_3_batch_norm", 
      "attr": {"eps": "0.0001"}, 
      "inputs": [[30, 0, 0], [31, 0, 0], [32, 0, 0], [33, 0, 1], [34, 0, 1]]
    }, 
    {
      "op": "Activation", 
      "name": "dense0__layer_3_relu", 
      "attr": {"act_type": "relu"}, 
      "inputs": [[35, 0, 0]]
    }, 
    {
      "op": "null", 
      "name": "dense0__layer_3_conv_weight", 
      "attr": {
        "kernel": "(3, 3)", 
        "no_bias": "True", 
        "num_filter": "8", 
        "pad": "(1, 1)", 
        "stride": "(1, 1)"
      }, 
      "inputs": []
    }, 
    {
      "op": "Convolution", 
      "name": "dense0__layer_3_conv", 
      "attr": {
        "kernel": "(3, 3)", 
        "no_bias": "True", 
        "num_filter": "8", 
        "pad": "(1, 1)", 
        "stride": "(1, 1)"
      }, 
      "inputs": [[36, 0, 0], [37, 0, 0]]
    }, 
    {
      "op": "Concat", 
      "name": "dense0__concat_3", 
      "attr": {"num_args": "2"}, 
      "inputs": [[30, 0, 0], [38, 0, 0]]
    }, 
    {
      "op": "null", 
      "name": "dense0__layer_4_batch_norm_gamma", 
      "attr": {"eps": "0.0001"}, 
      "inputs": []
    }, 
    {
      "op": "null", 
      "name": "dense0__layer_4_batch_norm_beta", 
      "attr": {"eps": "0.0001"}, 
      "inputs": []
    }, 
    {
      "op": "null", 
      "name": "dense0__layer_4_batch_norm_moving_mean", 
      "attr": {
        "__init__": "[\"zero\", {}]", 
        "eps": "0.0001"
      }, 
      "inputs": []
    }, 
    {
      "op": "null", 
      "name": "dense0__layer_4_batch_norm_moving_var", 
      "attr": {
        "__init__": "[\"one\", {}]", 
        "eps": "0.0001"
      }, 
      "inputs": []
    }, 
    {
      "op": "BatchNorm", 
      "name": "dense0__layer_4_batch_norm", 
      "attr": {"eps": "0.0001"}, 
      "inputs": [[39, 0, 0], [40, 0, 0], [41, 0, 0], [42, 0, 1], [43, 0, 1]]
    }, 
    {
      "op": "Activation", 
      "name": "dense0__layer_4_relu", 
      "attr": {"act_type": "relu"}, 
      "inputs": [[44, 0, 0]]
    }, 
    {
      "op": "null", 
      "name": "dense0__layer_4_conv_weight", 
      "attr": {
        "kernel": "(3, 3)", 
        "no_bias": "True", 
        "num_filter": "8", 
        "pad": "(1, 1)", 
        "stride": "(1, 1)"
      }, 
      "inputs": []
    }, 
    {
      "op": "Convolution", 
      "name": "dense0__layer_4_conv", 
      "attr": {
        "kernel": "(3, 3)", 
        "no_bias": "True", 
        "num_filter": "8", 
        "pad": "(1, 1)", 
        "stride": "(1, 1)"
      }, 
      "inputs": [[45, 0, 0], [46, 0, 0]]
    }, 
    {
      "op": "Concat", 
      "name": "dense0__concat_4", 
      "attr": {"num_args": "2"}, 
      "inputs": [[39, 0, 0], [47, 0, 0]]
    }, 
    {
      "op": "null", 
      "name": "dense0__layer_5_batch_norm_gamma", 
      "attr": {"eps": "0.0001"}, 
      "inputs": []
    }, 
    {
      "op": "null", 
      "name": "dense0__layer_5_batch_norm_beta", 
      "attr": {"eps": "0.0001"}, 
      "inputs": []
    }, 
    {
      "op": "null", 
      "name": "dense0__layer_5_batch_norm_moving_mean", 
      "attr": {
        "__init__": "[\"zero\", {}]", 
        "eps": "0.0001"
      }, 
      "inputs": []
    }, 
    {
      "op": "null", 
      "name": "dense0__layer_5_batch_norm_moving_var", 
      "attr": {
        "__init__": "[\"one\", {}]", 
        "eps": "0.0001"
      }, 
      "inputs": []
    }, 
    {
      "op": "BatchNorm", 
      "name": "dense0__layer_5_batch_norm", 
      "attr": {"eps": "0.0001"}, 
      "inputs": [[48, 0, 0], [49, 0, 0], [50, 0, 0], [51, 0, 1], [52, 0, 1]]
    }, 
    {
      "op": "Activation", 
      "name": "dense0__layer_5_relu", 
      "attr": {"act_type": "relu"}, 
      "inputs": [[53, 0, 0]]
    }, 
    {
      "op": "null", 
      "name": "dense0__layer_5_conv_weight", 
      "attr": {
        "kernel": "(3, 3)", 
        "no_bias": "True", 
        "num_filter": "8", 
        "pad": "(1, 1)", 
        "stride": "(1, 1)"
      }, 
      "inputs": []
    }, 
    {
      "op": "Convolution", 
      "name": "dense0__layer_5_conv", 
      "attr": {
        "kernel": "(3, 3)", 
        "no_bias": "True", 
        "num_filter": "8", 
        "pad": "(1, 1)", 
        "stride": "(1, 1)"
      }, 
      "inputs": [[54, 0, 0], [55, 0, 0]]
    }, 
    {
      "op": "Concat", 
      "name": "dense0__concat_5", 
      "attr": {"num_args": "2"}, 
      "inputs": [[48, 0, 0], [56, 0, 0]]
    }, 
    {
      "op": "null", 
      "name": "dense0__layer_6_batch_norm_gamma", 
      "attr": {"eps": "0.0001"}, 
      "inputs": []
    }, 
    {
      "op": "null", 
      "name": "dense0__layer_6_batch_norm_beta", 
      "attr": {"eps": "0.0001"}, 
      "inputs": []
    }, 
    {
      "op": "null", 
      "name": "dense0__layer_6_batch_norm_moving_mean", 
      "attr": {
        "__init__": "[\"zero\", {}]", 
        "eps": "0.0001"
      }, 
      "inputs": []
    }, 
    {
      "op": "null", 
      "name": "dense0__layer_6_batch_norm_moving_var", 
      "attr": {
        "__init__": "[\"one\", {}]", 
        "eps": "0.0001"
      }, 
      "inputs": []
    }, 
    {
      "op": "BatchNorm", 
      "name": "dense0__layer_6_batch_norm", 
      "attr": {"eps": "0.0001"}, 
      "inputs": [[57, 0, 0], [58, 0, 0], [59, 0, 0], [60, 0, 1], [61, 0, 1]]
    }, 
    {
      "op": "Activation", 
      "name": "dense0__layer_6_relu", 
      "attr": {"act_type": "relu"}, 
      "inputs": [[62, 0, 0]]
    }, 
    {
      "op": "null", 
      "name": "dense0__layer_6_conv_weight", 
      "attr": {
        "kernel": "(3, 3)", 
        "no_bias": "True", 
        "num_filter": "8", 
        "pad": "(1, 1)", 
        "stride": "(1, 1)"
      }, 
      "inputs": []
    }, 
    {
      "op": "Convolution", 
      "name": "dense0__layer_6_conv", 
      "attr": {
        "kernel": "(3, 3)", 
        "no_bias": "True", 
        "num_filter": "8", 
        "pad": "(1, 1)", 
        "stride": "(1, 1)"
      }, 
      "inputs": [[63, 0, 0], [64, 0, 0]]
    }, 
    {
      "op": "Concat", 
      "name": "dense0__concat_6", 
      "attr": {"num_args": "2"}, 
      "inputs": [[57, 0, 0], [65, 0, 0]]
    }, 
    {
      "op": "null", 
      "name": "dense0__layer_7_batch_norm_gamma", 
      "attr": {"eps": "0.0001"}, 
      "inputs": []
    }, 
    {
      "op": "null", 
      "name": "dense0__layer_7_batch_norm_beta", 
      "attr": {"eps": "0.0001"}, 
      "inputs": []
    }, 
    {
      "op": "null", 
      "name": "dense0__layer_7_batch_norm_moving_mean", 
      "attr": {
        "__init__": "[\"zero\", {}]", 
        "eps": "0.0001"
      }, 
      "inputs": []
    }, 
    {
      "op": "null", 
      "name": "dense0__layer_7_batch_norm_moving_var", 
      "attr": {
        "__init__": "[\"one\", {}]", 
        "eps": "0.0001"
      }, 
      "inputs": []
    }, 
    {
      "op": "BatchNorm", 
      "name": "dense0__layer_7_batch_norm", 
      "attr": {"eps": "0.0001"}, 
      "inputs": [[66, 0, 0], [67, 0, 0], [68, 0, 0], [69, 0, 1], [70, 0, 1]]
    }, 
    {
      "op": "Activation", 
      "name": "dense0__layer_7_relu", 
      "attr": {"act_type": "relu"}, 
      "inputs": [[71, 0, 0]]
    }, 
    {
      "op": "null", 
      "name": "dense0__layer_7_conv_weight", 
      "attr": {
        "kernel": "(3, 3)", 
        "no_bias": "True", 
        "num_filter": "8", 
        "pad": "(1, 1)", 
        "stride": "(1, 1)"
      }, 
      "inputs": []
    }, 
    {
      "op": "Convolution", 
      "name": "dense0__layer_7_conv", 
      "attr": {
        "kernel": "(3, 3)", 
        "no_bias": "True", 
        "num_filter": "8", 
        "pad": "(1, 1)", 
        "stride": "(1, 1)"
      }, 
      "inputs": [[72, 0, 0], [73, 0, 0]]
    }, 
    {
      "op": "Concat", 
      "name": "dense0__concat_7", 
      "attr": {"num_args": "2"}, 
      "inputs": [[66, 0, 0], [74, 0, 0]]
    }, 
    {
      "op": "null", 
      "name": "dense0__layer_8_batch_norm_gamma", 
      "attr": {"eps": "0.0001"}, 
      "inputs": []
    }, 
    {
      "op": "null", 
      "name": "dense0__layer_8_batch_norm_beta", 
      "attr": {"eps": "0.0001"}, 
      "inputs": []
    }, 
    {
      "op": "null", 
      "name": "dense0__layer_8_batch_norm_moving_mean", 
      "attr": {
        "__init__": "[\"zero\", {}]", 
        "eps": "0.0001"
      }, 
      "inputs": []
    }, 
    {
      "op": "null", 
      "name": "dense0__layer_8_batch_norm_moving_var", 
      "attr": {
        "__init__": "[\"one\", {}]", 
        "eps": "0.0001"
      }, 
      "inputs": []
    }, 
    {
      "op": "BatchNorm", 
      "name": "dense0__layer_8_batch_norm", 
      "attr": {"eps": "0.0001"}, 
      "inputs": [[75, 0, 0], [76, 0, 0], [77, 0, 0], [78, 0, 1], [79, 0, 1]]
    }, 
    {
      "op": "Activation", 
      "name": "dense0__layer_8_relu", 
      "attr": {"act_type": "relu"}, 
      "inputs": [[80, 0, 0]]
    }, 
    {
      "op": "null", 
      "name": "dense0__layer_8_conv_weight", 
      "attr": {
        "kernel": "(3, 3)", 
        "no_bias": "True", 
        "num_filter": "8", 
        "pad": "(1, 1)", 
        "stride": "(1, 1)"
      }, 
      "inputs": []
    }, 
    {
      "op": "Convolution", 
      "name": "dense0__layer_8_conv", 
      "attr": {
        "kernel": "(3, 3)", 
        "no_bias": "True", 
        "num_filter": "8", 
        "pad": "(1, 1)", 
        "stride": "(1, 1)"
      }, 
      "inputs": [[81, 0, 0], [82, 0, 0]]
    }, 
    {
      "op": "Concat", 
      "name": "dense0__concat_8", 
      "attr": {"num_args": "2"}, 
      "inputs": [[75, 0, 0], [83, 0, 0]]
    }, 
    {
      "op": "null", 
      "name": "dense0__layer_9_batch_norm_gamma", 
      "attr": {"eps": "0.0001"}, 
      "inputs": []
    }, 
    {
      "op": "null", 
      "name": "dense0__layer_9_batch_norm_beta", 
      "attr": {"eps": "0.0001"}, 
      "inputs": []
    }, 
    {
      "op": "null", 
      "name": "dense0__layer_9_batch_norm_moving_mean", 
      "attr": {
        "__init__": "[\"zero\", {}]", 
        "eps": "0.0001"
      }, 
      "inputs": []
    }, 
    {
      "op": "null", 
      "name": "dense0__layer_9_batch_norm_moving_var", 
      "attr": {
        "__init__": "[\"one\", {}]", 
        "eps": "0.0001"
      }, 
      "inputs": []
    }, 
    {
      "op": "BatchNorm", 
      "name": "dense0__layer_9_batch_norm", 
      "attr": {"eps": "0.0001"}, 
      "inputs": [[84, 0, 0], [85, 0, 0], [86, 0, 0], [87, 0, 1], [88, 0, 1]]
    }, 
    {
      "op": "Activation", 
      "name": "dense0__layer_9_relu", 
      "attr": {"act_type": "relu"}, 
      "inputs": [[89, 0, 0]]
    }, 
    {
      "op": "null", 
      "name": "dense0__layer_9_conv_weight", 
      "attr": {
        "kernel": "(3, 3)", 
        "no_bias": "True", 
        "num_filter": "8", 
        "pad": "(1, 1)", 
        "stride": "(1, 1)"
      }, 
      "inputs": []
    }, 
    {
      "op": "Convolution", 
      "name": "dense0__layer_9_conv", 
      "attr": {
        "kernel": "(3, 3)", 
        "no_bias": "True", 
        "num_filter": "8", 
        "pad": "(1, 1)", 
        "stride": "(1, 1)"
      }, 
      "inputs": [[90, 0, 0], [91, 0, 0]]
    }, 
    {
      "op": "Concat", 
      "name": "dense0__concat_9", 
      "attr": {"num_args": "2"}, 
      "inputs": [[84, 0, 0], [92, 0, 0]]
    }, 
    {
      "op": "null", 
      "name": "dense0__layer_10_batch_norm_gamma", 
      "attr": {"eps": "0.0001"}, 
      "inputs": []
    }, 
    {
      "op": "null", 
      "name": "dense0__layer_10_batch_norm_beta", 
      "attr": {"eps": "0.0001"}, 
      "inputs": []
    }, 
    {
      "op": "null", 
      "name": "dense0__layer_10_batch_norm_moving_mean", 
      "attr": {
        "__init__": "[\"zero\", {}]", 
        "eps": "0.0001"
      }, 
      "inputs": []
    }, 
    {
      "op": "null", 
      "name": "dense0__layer_10_batch_norm_moving_var", 
      "attr": {
        "__init__": "[\"one\", {}]", 
        "eps": "0.0001"
      }, 
      "inputs": []
    }, 
    {
      "op": "BatchNorm", 
      "name": "dense0__layer_10_batch_norm", 
      "attr": {"eps": "0.0001"}, 
      "inputs": [[93, 0, 0], [94, 0, 0], [95, 0, 0], [96, 0, 1], [97, 0, 1]]
    }, 
    {
      "op": "Activation", 
      "name": "dense0__layer_10_relu", 
      "attr": {"act_type": "relu"}, 
      "inputs": [[98, 0, 0]]
    }, 
    {
      "op": "null", 
      "name": "dense0__layer_10_conv_weight", 
      "attr": {
        "kernel": "(3, 3)", 
        "no_bias": "True", 
        "num_filter": "8", 
        "pad": "(1, 1)", 
        "stride": "(1, 1)"
      }, 
      "inputs": []
    }, 
    {
      "op": "Convolution", 
      "name": "dense0__layer_10_conv", 
      "attr": {
        "kernel": "(3, 3)", 
        "no_bias": "True", 
        "num_filter": "8", 
        "pad": "(1, 1)", 
        "stride": "(1, 1)"
      }, 
      "inputs": [[99, 0, 0], [100, 0, 0]]
    }, 
    {
      "op": "Concat", 
      "name": "dense0__concat_10", 
      "attr": {"num_args": "2"}, 
      "inputs": [[93, 0, 0], [101, 0, 0]]
    }, 
    {
      "op": "null", 
      "name": "dense0__layer_11_batch_norm_gamma", 
      "attr": {"eps": "0.0001"}, 
      "inputs": []
    }, 
    {
      "op": "null", 
      "name": "dense0__layer_11_batch_norm_beta", 
      "attr": {"eps": "0.0001"}, 
      "inputs": []
    }, 
    {
      "op": "null", 
      "name": "dense0__layer_11_batch_norm_moving_mean", 
      "attr": {
        "__init__": "[\"zero\", {}]", 
        "eps": "0.0001"
      }, 
      "inputs": []
    }, 
    {
      "op": "null", 
      "name": "dense0__layer_11_batch_norm_moving_var", 
      "attr": {
        "__init__": "[\"one\", {}]", 
        "eps": "0.0001"
      }, 
      "inputs": []
    }, 
    {
      "op": "BatchNorm", 
      "name": "dense0__layer_11_batch_norm", 
      "attr": {"eps": "0.0001"}, 
      "inputs": [[102, 0, 0], [103, 0, 0], [104, 0, 0], [105, 0, 1], [106, 0, 1]]
    }, 
    {
      "op": "Activation", 
      "name": "dense0__layer_11_relu", 
      "attr": {"act_type": "relu"}, 
      "inputs": [[107, 0, 0]]
    }, 
    {
      "op": "null", 
      "name": "dense0__layer_11_conv_weight", 
      "attr": {
        "kernel": "(3, 3)", 
        "no_bias": "True", 
        "num_filter": "8", 
        "pad": "(1, 1)", 
        "stride": "(1, 1)"
      }, 
      "inputs": []
    }, 
    {
      "op": "Convolution", 
      "name": "dense0__layer_11_conv", 
      "attr": {
        "kernel": "(3, 3)", 
        "no_bias": "True", 
        "num_filter": "8", 
        "pad": "(1, 1)", 
        "stride": "(1, 1)"
      }, 
      "inputs": [[108, 0, 0], [109, 0, 0]]
    }, 
    {
      "op": "Concat", 
      "name": "dense0__concat_11", 
      "attr": {"num_args": "2"}, 
      "inputs": [[102, 0, 0], [110, 0, 0]]
    }, 
    {
      "op": "null", 
      "name": "dense0__layer_12_batch_norm_gamma", 
      "attr": {"eps": "0.0001"}, 
      "inputs": []
    }, 
    {
      "op": "null", 
      "name": "dense0__layer_12_batch_norm_beta", 
      "attr": {"eps": "0.0001"}, 
      "inputs": []
    }, 
    {
      "op": "null", 
      "name": "dense0__layer_12_batch_norm_moving_mean", 
      "attr": {
        "__init__": "[\"zero\", {}]", 
        "eps": "0.0001"
      }, 
      "inputs": []
    }, 
    {
      "op": "null", 
      "name": "dense0__layer_12_batch_norm_moving_var", 
      "attr": {
        "__init__": "[\"one\", {}]", 
        "eps": "0.0001"
      }, 
      "inputs": []
    }, 
    {
      "op": "BatchNorm", 
      "name": "dense0__layer_12_batch_norm", 
      "attr": {"eps": "0.0001"}, 
      "inputs": [[111, 0, 0], [112, 0, 0], [113, 0, 0], [114, 0, 1], [115, 0, 1]]
    }, 
    {
      "op": "Activation", 
      "name": "dense0__layer_12_relu", 
      "attr": {"act_type": "relu"}, 
      "inputs": [[116, 0, 0]]
    }, 
    {
      "op": "null", 
      "name": "dense0__layer_12_conv_weight", 
      "attr": {
        "kernel": "(3, 3)", 
        "no_bias": "True", 
        "num_filter": "8", 
        "pad": "(1, 1)", 
        "stride": "(1, 1)"
      }, 
      "inputs": []
    }, 
    {
      "op": "Convolution", 
      "name": "dense0__layer_12_conv", 
      "attr": {
        "kernel": "(3, 3)", 
        "no_bias": "True", 
        "num_filter": "8", 
        "pad": "(1, 1)", 
        "stride": "(1, 1)"
      }, 
      "inputs": [[117, 0, 0], [118, 0, 0]]
    }, 
    {
      "op": "Concat", 
      "name": "dense0__concat_12", 
      "attr": {"num_args": "2"}, 
      "inputs": [[111, 0, 0], [119, 0, 0]]
    }, 
    {
      "op": "null", 
      "name": "dense0__layer_13_batch_norm_gamma", 
      "attr": {"eps": "0.0001"}, 
      "inputs": []
    }, 
    {
      "op": "null", 
      "name": "dense0__layer_13_batch_norm_beta", 
      "attr": {"eps": "0.0001"}, 
      "inputs": []
    }, 
    {
      "op": "null", 
      "name": "dense0__layer_13_batch_norm_moving_mean", 
      "attr": {
        "__init__": "[\"zero\", {}]", 
        "eps": "0.0001"
      }, 
      "inputs": []
    }, 
    {
      "op": "null", 
      "name": "dense0__layer_13_batch_norm_moving_var", 
      "attr": {
        "__init__": "[\"one\", {}]", 
        "eps": "0.0001"
      }, 
      "inputs": []
    }, 
    {
      "op": "BatchNorm", 
      "name": "dense0__layer_13_batch_norm", 
      "attr": {"eps": "0.0001"}, 
      "inputs": [[120, 0, 0], [121, 0, 0], [122, 0, 0], [123, 0, 1], [124, 0, 1]]
    }, 
    {
      "op": "Activation", 
      "name": "dense0__layer_13_relu", 
      "attr": {"act_type": "relu"}, 
      "inputs": [[125, 0, 0]]
    }, 
    {
      "op": "null", 
      "name": "dense0__layer_13_conv_weight", 
      "attr": {
        "kernel": "(3, 3)", 
        "no_bias": "True", 
        "num_filter": "8", 
        "pad": "(1, 1)", 
        "stride": "(1, 1)"
      }, 
      "inputs": []
    }, 
    {
      "op": "Convolution", 
      "name": "dense0__layer_13_conv", 
      "attr": {
        "kernel": "(3, 3)", 
        "no_bias": "True", 
        "num_filter": "8", 
        "pad": "(1, 1)", 
        "stride": "(1, 1)"
      }, 
      "inputs": [[126, 0, 0], [127, 0, 0]]
    }, 
    {
      "op": "Concat", 
      "name": "dense0__concat_13", 
      "attr": {"num_args": "2"}, 
      "inputs": [[120, 0, 0], [128, 0, 0]]
    }, 
    {
      "op": "null", 
      "name": "dense0__layer_14_batch_norm_gamma", 
      "attr": {"eps": "0.0001"}, 
      "inputs": []
    }, 
    {
      "op": "null", 
      "name": "dense0__layer_14_batch_norm_beta", 
      "attr": {"eps": "0.0001"}, 
      "inputs": []
    }, 
    {
      "op": "null", 
      "name": "dense0__layer_14_batch_norm_moving_mean", 
      "attr": {
        "__init__": "[\"zero\", {}]", 
        "eps": "0.0001"
      }, 
      "inputs": []
    }, 
    {
      "op": "null", 
      "name": "dense0__layer_14_batch_norm_moving_var", 
      "attr": {
        "__init__": "[\"one\", {}]", 
        "eps": "0.0001"
      }, 
      "inputs": []
    }, 
    {
      "op": "BatchNorm", 
      "name": "dense0__layer_14_batch_norm", 
      "attr": {"eps": "0.0001"}, 
      "inputs": [[129, 0, 0], [130, 0, 0], [131, 0, 0], [132, 0, 1], [133, 0, 1]]
    }, 
    {
      "op": "Activation", 
      "name": "dense0__layer_14_relu", 
      "attr": {"act_type": "relu"}, 
      "inputs": [[134, 0, 0]]
    }, 
    {
      "op": "null", 
      "name": "dense0__layer_14_conv_weight", 
      "attr": {
        "kernel": "(3, 3)", 
        "no_bias": "True", 
        "num_filter": "8", 
        "pad": "(1, 1)", 
        "stride": "(1, 1)"
      }, 
      "inputs": []
    }, 
    {
      "op": "Convolution", 
      "name": "dense0__layer_14_conv", 
      "attr": {
        "kernel": "(3, 3)", 
        "no_bias": "True", 
        "num_filter": "8", 
        "pad": "(1, 1)", 
        "stride": "(1, 1)"
      }, 
      "inputs": [[135, 0, 0], [136, 0, 0]]
    }, 
    {
      "op": "Concat", 
      "name": "dense0__concat_14", 
      "attr": {"num_args": "2"}, 
      "inputs": [[129, 0, 0], [137, 0, 0]]
    }, 
    {
      "op": "null", 
      "name": "dense0__layer_15_batch_norm_gamma", 
      "attr": {"eps": "0.0001"}, 
      "inputs": []
    }, 
    {
      "op": "null", 
      "name": "dense0__layer_15_batch_norm_beta", 
      "attr": {"eps": "0.0001"}, 
      "inputs": []
    }, 
    {
      "op": "null", 
      "name": "dense0__layer_15_batch_norm_moving_mean", 
      "attr": {
        "__init__": "[\"zero\", {}]", 
        "eps": "0.0001"
      }, 
      "inputs": []
    }, 
    {
      "op": "null", 
      "name": "dense0__layer_15_batch_norm_moving_var", 
      "attr": {
        "__init__": "[\"one\", {}]", 
        "eps": "0.0001"
      }, 
      "inputs": []
    }, 
    {
      "op": "BatchNorm", 
      "name": "dense0__layer_15_batch_norm", 
      "attr": {"eps": "0.0001"}, 
      "inputs": [[138, 0, 0], [139, 0, 0], [140, 0, 0], [141, 0, 1], [142, 0, 1]]
    }, 
    {
      "op": "Activation", 
      "name": "dense0__layer_15_relu", 
      "attr": {"act_type": "relu"}, 
      "inputs": [[143, 0, 0]]
    }, 
    {
      "op": "null", 
      "name": "dense0__layer_15_conv_weight", 
      "attr": {
        "kernel": "(3, 3)", 
        "no_bias": "True", 
        "num_filter": "8", 
        "pad": "(1, 1)", 
        "stride": "(1, 1)"
      }, 
      "inputs": []
    }, 
    {
      "op": "Convolution", 
      "name": "dense0__layer_15_conv", 
      "attr": {
        "kernel": "(3, 3)", 
        "no_bias": "True", 
        "num_filter": "8", 
        "pad": "(1, 1)", 
        "stride": "(1, 1)"
      }, 
      "inputs": [[144, 0, 0], [145, 0, 0]]
    }, 
    {
      "op": "Concat", 
      "name": "dense0__concat_15", 
      "attr": {"num_args": "2"}, 
      "inputs": [[138, 0, 0], [146, 0, 0]]
    }, 
    {
      "op": "null", 
      "name": "dense0__layer_16_batch_norm_gamma", 
      "attr": {"eps": "0.0001"}, 
      "inputs": []
    }, 
    {
      "op": "null", 
      "name": "dense0__layer_16_batch_norm_beta", 
      "attr": {"eps": "0.0001"}, 
      "inputs": []
    }, 
    {
      "op": "null", 
      "name": "dense0__layer_16_batch_norm_moving_mean", 
      "attr": {
        "__init__": "[\"zero\", {}]", 
        "eps": "0.0001"
      }, 
      "inputs": []
    }, 
    {
      "op": "null", 
      "name": "dense0__layer_16_batch_norm_moving_var", 
      "attr": {
        "__init__": "[\"one\", {}]", 
        "eps": "0.0001"
      }, 
      "inputs": []
    }, 
    {
      "op": "BatchNorm", 
      "name": "dense0__layer_16_batch_norm", 
      "attr": {"eps": "0.0001"}, 
      "inputs": [[147, 0, 0], [148, 0, 0], [149, 0, 0], [150, 0, 1], [151, 0, 1]]
    }, 
    {
      "op": "Activation", 
      "name": "dense0__layer_16_relu", 
      "attr": {"act_type": "relu"}, 
      "inputs": [[152, 0, 0]]
    }, 
    {
      "op": "null", 
      "name": "dense0__layer_16_conv_weight", 
      "attr": {
        "kernel": "(3, 3)", 
        "no_bias": "True", 
        "num_filter": "8", 
        "pad": "(1, 1)", 
        "stride": "(1, 1)"
      }, 
      "inputs": []
    }, 
    {
      "op": "Convolution", 
      "name": "dense0__layer_16_conv", 
      "attr": {
        "kernel": "(3, 3)", 
        "no_bias": "True", 
        "num_filter": "8", 
        "pad": "(1, 1)", 
        "stride": "(1, 1)"
      }, 
      "inputs": [[153, 0, 0], [154, 0, 0]]
    }, 
    {
      "op": "Concat", 
      "name": "dense0__concat_16", 
      "attr": {"num_args": "2"}, 
      "inputs": [[147, 0, 0], [155, 0, 0]]
    }, 
    {
      "op": "null", 
      "name": "dense0__layer_17_batch_norm_gamma", 
      "attr": {"eps": "0.0001"}, 
      "inputs": []
    }, 
    {
      "op": "null", 
      "name": "dense0__layer_17_batch_norm_beta", 
      "attr": {"eps": "0.0001"}, 
      "inputs": []
    }, 
    {
      "op": "null", 
      "name": "dense0__layer_17_batch_norm_moving_mean", 
      "attr": {
        "__init__": "[\"zero\", {}]", 
        "eps": "0.0001"
      }, 
      "inputs": []
    }, 
    {
      "op": "null", 
      "name": "dense0__layer_17_batch_norm_moving_var", 
      "attr": {
        "__init__": "[\"one\", {}]", 
        "eps": "0.0001"
      }, 
      "inputs": []
    }, 
    {
      "op": "BatchNorm", 
      "name": "dense0__layer_17_batch_norm", 
      "attr": {"eps": "0.0001"}, 
      "inputs": [[156, 0, 0], [157, 0, 0], [158, 0, 0], [159, 0, 1], [160, 0, 1]]
    }, 
    {
      "op": "Activation", 
      "name": "dense0__layer_17_relu", 
      "attr": {"act_type": "relu"}, 
      "inputs": [[161, 0, 0]]
    }, 
    {
      "op": "null", 
      "name": "dense0__layer_17_conv_weight", 
      "attr": {
        "kernel": "(3, 3)", 
        "no_bias": "True", 
        "num_filter": "8", 
        "pad": "(1, 1)", 
        "stride": "(1, 1)"
      }, 
      "inputs": []
    }, 
    {
      "op": "Convolution", 
      "name": "dense0__layer_17_conv", 
      "attr": {
        "kernel": "(3, 3)", 
        "no_bias": "True", 
        "num_filter": "8", 
        "pad": "(1, 1)", 
        "stride": "(1, 1)"
      }, 
      "inputs": [[162, 0, 0], [163, 0, 0]]
    }, 
    {
      "op": "Concat", 
      "name": "dense0__concat_17", 
      "attr": {"num_args": "2"}, 
      "inputs": [[156, 0, 0], [164, 0, 0]]
    }, 
    {
      "op": "null", 
      "name": "dense0__layer_18_batch_norm_gamma", 
      "attr": {"eps": "0.0001"}, 
      "inputs": []
    }, 
    {
      "op": "null", 
      "name": "dense0__layer_18_batch_norm_beta", 
      "attr": {"eps": "0.0001"}, 
      "inputs": []
    }, 
    {
      "op": "null", 
      "name": "dense0__layer_18_batch_norm_moving_mean", 
      "attr": {
        "__init__": "[\"zero\", {}]", 
        "eps": "0.0001"
      }, 
      "inputs": []
    }, 
    {
      "op": "null", 
      "name": "dense0__layer_18_batch_norm_moving_var", 
      "attr": {
        "__init__": "[\"one\", {}]", 
        "eps": "0.0001"
      }, 
      "inputs": []
    }, 
    {
      "op": "BatchNorm", 
      "name": "dense0__layer_18_batch_norm", 
      "attr": {"eps": "0.0001"}, 
      "inputs": [[165, 0, 0], [166, 0, 0], [167, 0, 0], [168, 0, 1], [169, 0, 1]]
    }, 
    {
      "op": "Activation", 
      "name": "dense0__layer_18_relu", 
      "attr": {"act_type": "relu"}, 
      "inputs": [[170, 0, 0]]
    }, 
    {
      "op": "null", 
      "name": "dense0__layer_18_conv_weight", 
      "attr": {
        "kernel": "(3, 3)", 
        "no_bias": "True", 
        "num_filter": "8", 
        "pad": "(1, 1)", 
        "stride": "(1, 1)"
      }, 
      "inputs": []
    }, 
    {
      "op": "Convolution", 
      "name": "dense0__layer_18_conv", 
      "attr": {
        "kernel": "(3, 3)", 
        "no_bias": "True", 
        "num_filter": "8", 
        "pad": "(1, 1)", 
        "stride": "(1, 1)"
      }, 
      "inputs": [[171, 0, 0], [172, 0, 0]]
    }, 
    {
      "op": "Concat", 
      "name": "dense0__concat_18", 
      "attr": {"num_args": "2"}, 
      "inputs": [[165, 0, 0], [173, 0, 0]]
    }, 
    {
      "op": "null", 
      "name": "dense0__layer_19_batch_norm_gamma", 
      "attr": {"eps": "0.0001"}, 
      "inputs": []
    }, 
    {
      "op": "null", 
      "name": "dense0__layer_19_batch_norm_beta", 
      "attr": {"eps": "0.0001"}, 
      "inputs": []
    }, 
    {
      "op": "null", 
      "name": "dense0__layer_19_batch_norm_moving_mean", 
      "attr": {
        "__init__": "[\"zero\", {}]", 
        "eps": "0.0001"
      }, 
      "inputs": []
    }, 
    {
      "op": "null", 
      "name": "dense0__layer_19_batch_norm_moving_var", 
      "attr": {
        "__init__": "[\"one\", {}]", 
        "eps": "0.0001"
      }, 
      "inputs": []
    }, 
    {
      "op": "BatchNorm", 
      "name": "dense0__layer_19_batch_norm", 
      "attr": {"eps": "0.0001"}, 
      "inputs": [[174, 0, 0], [175, 0, 0], [176, 0, 0], [177, 0, 1], [178, 0, 1]]
    }, 
    {
      "op": "Activation", 
      "name": "dense0__layer_19_relu", 
      "attr": {"act_type": "relu"}, 
      "inputs": [[179, 0, 0]]
    }, 
    {
      "op": "null", 
      "name": "dense0__layer_19_conv_weight", 
      "attr": {
        "kernel": "(3, 3)", 
        "no_bias": "True", 
        "num_filter": "8", 
        "pad": "(1, 1)", 
        "stride": "(1, 1)"
      }, 
      "inputs": []
    }, 
    {
      "op": "Convolution", 
      "name": "dense0__layer_19_conv", 
      "attr": {
        "kernel": "(3, 3)", 
        "no_bias": "True", 
        "num_filter": "8", 
        "pad": "(1, 1)", 
        "stride": "(1, 1)"
      }, 
      "inputs": [[180, 0, 0], [181, 0, 0]]
    }, 
    {
      "op": "Concat", 
      "name": "dense0__concat_19", 
      "attr": {"num_args": "2"}, 
      "inputs": [[174, 0, 0], [182, 0, 0]]
    }, 
    {
      "op": "null", 
      "name": "dense0__layer_20_batch_norm_gamma", 
      "attr": {"eps": "0.0001"}, 
      "inputs": []
    }, 
    {
      "op": "null", 
      "name": "dense0__layer_20_batch_norm_beta", 
      "attr": {"eps": "0.0001"}, 
      "inputs": []
    }, 
    {
      "op": "null", 
      "name": "dense0__layer_20_batch_norm_moving_mean", 
      "attr": {
        "__init__": "[\"zero\", {}]", 
        "eps": "0.0001"
      }, 
      "inputs": []
    }, 
    {
      "op": "null", 
      "name": "dense0__layer_20_batch_norm_moving_var", 
      "attr": {
        "__init__": "[\"one\", {}]", 
        "eps": "0.0001"
      }, 
      "inputs": []
    }, 
    {
      "op": "BatchNorm", 
      "name": "dense0__layer_20_batch_norm", 
      "attr": {"eps": "0.0001"}, 
      "inputs": [[183, 0, 0], [184, 0, 0], [185, 0, 0], [186, 0, 1], [187, 0, 1]]
    }, 
    {
      "op": "Activation", 
      "name": "dense0__layer_20_relu", 
      "attr": {"act_type": "relu"}, 
      "inputs": [[188, 0, 0]]
    }, 
    {
      "op": "null", 
      "name": "dense0__layer_20_conv_weight", 
      "attr": {
        "kernel": "(3, 3)", 
        "no_bias": "True", 
        "num_filter": "8", 
        "pad": "(1, 1)", 
        "stride": "(1, 1)"
      }, 
      "inputs": []
    }, 
    {
      "op": "Convolution", 
      "name": "dense0__layer_20_conv", 
      "attr": {
        "kernel": "(3, 3)", 
        "no_bias": "True", 
        "num_filter": "8", 
        "pad": "(1, 1)", 
        "stride": "(1, 1)"
      }, 
      "inputs": [[189, 0, 0], [190, 0, 0]]
    }, 
    {
      "op": "Concat", 
      "name": "dense0__concat_20", 
      "attr": {"num_args": "2"}, 
      "inputs": [[183, 0, 0], [191, 0, 0]]
    }, 
    {
      "op": "null", 
      "name": "dense0__layer_21_batch_norm_gamma", 
      "attr": {"eps": "0.0001"}, 
      "inputs": []
    }, 
    {
      "op": "null", 
      "name": "dense0__layer_21_batch_norm_beta", 
      "attr": {"eps": "0.0001"}, 
      "inputs": []
    }, 
    {
      "op": "null", 
      "name": "dense0__layer_21_batch_norm_moving_mean", 
      "attr": {
        "__init__": "[\"zero\", {}]", 
        "eps": "0.0001"
      }, 
      "inputs": []
    }, 
    {
      "op": "null", 
      "name": "dense0__layer_21_batch_norm_moving_var", 
      "attr": {
        "__init__": "[\"one\", {}]", 
        "eps": "0.0001"
      }, 
      "inputs": []
    }, 
    {
      "op": "BatchNorm", 
      "name": "dense0__layer_21_batch_norm", 
      "attr": {"eps": "0.0001"}, 
      "inputs": [[192, 0, 0], [193, 0, 0], [194, 0, 0], [195, 0, 1], [196, 0, 1]]
    }, 
    {
      "op": "Activation", 
      "name": "dense0__layer_21_relu", 
      "attr": {"act_type": "relu"}, 
      "inputs": [[197, 0, 0]]
    }, 
    {
      "op": "null", 
      "name": "dense0__layer_21_conv_weight", 
      "attr": {
        "kernel": "(3, 3)", 
        "no_bias": "True", 
        "num_filter": "8", 
        "pad": "(1, 1)", 
        "stride": "(1, 1)"
      }, 
      "inputs": []
    }, 
    {
      "op": "Convolution", 
      "name": "dense0__layer_21_conv", 
      "attr": {
        "kernel": "(3, 3)", 
        "no_bias": "True", 
        "num_filter": "8", 
        "pad": "(1, 1)", 
        "stride": "(1, 1)"
      }, 
      "inputs": [[198, 0, 0], [199, 0, 0]]
    }, 
    {
      "op": "Concat", 
      "name": "dense0__concat_21", 
      "attr": {"num_args": "2"}, 
      "inputs": [[192, 0, 0], [200, 0, 0]]
    }, 
    {
      "op": "null", 
      "name": "dense0__layer_22_batch_norm_gamma", 
      "attr": {"eps": "0.0001"}, 
      "inputs": []
    }, 
    {
      "op": "null", 
      "name": "dense0__layer_22_batch_norm_beta", 
      "attr": {"eps": "0.0001"}, 
      "inputs": []
    }, 
    {
      "op": "null", 
      "name": "dense0__layer_22_batch_norm_moving_mean", 
      "attr": {
        "__init__": "[\"zero\", {}]", 
        "eps": "0.0001"
      }, 
      "inputs": []
    }, 
    {
      "op": "null", 
      "name": "dense0__layer_22_batch_norm_moving_var", 
      "attr": {
        "__init__": "[\"one\", {}]", 
        "eps": "0.0001"
      }, 
      "inputs": []
    }, 
    {
      "op": "BatchNorm", 
      "name": "dense0__layer_22_batch_norm", 
      "attr": {"eps": "0.0001"}, 
      "inputs": [[201, 0, 0], [202, 0, 0], [203, 0, 0], [204, 0, 1], [205, 0, 1]]
    }, 
    {
      "op": "Activation", 
      "name": "dense0__layer_22_relu", 
      "attr": {"act_type": "relu"}, 
      "inputs": [[206, 0, 0]]
    }, 
    {
      "op": "null", 
      "name": "dense0__layer_22_conv_weight", 
      "attr": {
        "kernel": "(3, 3)", 
        "no_bias": "True", 
        "num_filter": "8", 
        "pad": "(1, 1)", 
        "stride": "(1, 1)"
      }, 
      "inputs": []
    }, 
    {
      "op": "Convolution", 
      "name": "dense0__layer_22_conv", 
      "attr": {
        "kernel": "(3, 3)", 
        "no_bias": "True", 
        "num_filter": "8", 
        "pad": "(1, 1)", 
        "stride": "(1, 1)"
      }, 
      "inputs": [[207, 0, 0], [208, 0, 0]]
    }, 
    {
      "op": "Concat", 
      "name": "dense0__concat_22", 
      "attr": {"num_args": "2"}, 
      "inputs": [[201, 0, 0], [209, 0, 0]]
    }, 
    {
      "op": "null", 
      "name": "dense0__layer_23_batch_norm_gamma", 
      "attr": {"eps": "0.0001"}, 
      "inputs": []
    }, 
    {
      "op": "null", 
      "name": "dense0__layer_23_batch_norm_beta", 
      "attr": {"eps": "0.0001"}, 
      "inputs": []
    }, 
    {
      "op": "null", 
      "name": "dense0__layer_23_batch_norm_moving_mean", 
      "attr": {
        "__init__": "[\"zero\", {}]", 
        "eps": "0.0001"
      }, 
      "inputs": []
    }, 
    {
      "op": "null", 
      "name": "dense0__layer_23_batch_norm_moving_var", 
      "attr": {
        "__init__": "[\"one\", {}]", 
        "eps": "0.0001"
      }, 
      "inputs": []
    }, 
    {
      "op": "BatchNorm", 
      "name": "dense0__layer_23_batch_norm", 
      "attr": {"eps": "0.0001"}, 
      "inputs": [[210, 0, 0], [211, 0, 0], [212, 0, 0], [213, 0, 1], [214, 0, 1]]
    }, 
    {
      "op": "Activation", 
      "name": "dense0__layer_23_relu", 
      "attr": {"act_type": "relu"}, 
      "inputs": [[215, 0, 0]]
    }, 
    {
      "op": "null", 
      "name": "dense0__layer_23_conv_weight", 
      "attr": {
        "kernel": "(3, 3)", 
        "no_bias": "True", 
        "num_filter": "8", 
        "pad": "(1, 1)", 
        "stride": "(1, 1)"
      }, 
      "inputs": []
    }, 
    {
      "op": "Convolution", 
      "name": "dense0__layer_23_conv", 
      "attr": {
        "kernel": "(3, 3)", 
        "no_bias": "True", 
        "num_filter": "8", 
        "pad": "(1, 1)", 
        "stride": "(1, 1)"
      }, 
      "inputs": [[216, 0, 0], [217, 0, 0]]
    }, 
    {
      "op": "Concat", 
      "name": "dense0__concat_23", 
      "attr": {"num_args": "2"}, 
      "inputs": [[210, 0, 0], [218, 0, 0]]
    }, 
    {
      "op": "null", 
      "name": "dense0__layer_24_batch_norm_gamma", 
      "attr": {"eps": "0.0001"}, 
      "inputs": []
    }, 
    {
      "op": "null", 
      "name": "dense0__layer_24_batch_norm_beta", 
      "attr": {"eps": "0.0001"}, 
      "inputs": []
    }, 
    {
      "op": "null", 
      "name": "dense0__layer_24_batch_norm_moving_mean", 
      "attr": {
        "__init__": "[\"zero\", {}]", 
        "eps": "0.0001"
      }, 
      "inputs": []
    }, 
    {
      "op": "null", 
      "name": "dense0__layer_24_batch_norm_moving_var", 
      "attr": {
        "__init__": "[\"one\", {}]", 
        "eps": "0.0001"
      }, 
      "inputs": []
    }, 
    {
      "op": "BatchNorm", 
      "name": "dense0__layer_24_batch_norm", 
      "attr": {"eps": "0.0001"}, 
      "inputs": [[219, 0, 0], [220, 0, 0], [221, 0, 0], [222, 0, 1], [223, 0, 1]]
    }, 
    {
      "op": "Activation", 
      "name": "dense0__layer_24_relu", 
      "attr": {"act_type": "relu"}, 
      "inputs": [[224, 0, 0]]
    }, 
    {
      "op": "null", 
      "name": "dense0__layer_24_conv_weight", 
      "attr": {
        "kernel": "(3, 3)", 
        "no_bias": "True", 
        "num_filter": "8", 
        "pad": "(1, 1)", 
        "stride": "(1, 1)"
      }, 
      "inputs": []
    }, 
    {
      "op": "Convolution", 
      "name": "dense0__layer_24_conv", 
      "attr": {
        "kernel": "(3, 3)", 
        "no_bias": "True", 
        "num_filter": "8", 
        "pad": "(1, 1)", 
        "stride": "(1, 1)"
      }, 
      "inputs": [[225, 0, 0], [226, 0, 0]]
    }, 
    {
      "op": "Concat", 
      "name": "dense0__concat_24", 
      "attr": {"num_args": "2"}, 
      "inputs": [[219, 0, 0], [227, 0, 0]]
    }, 
    {
      "op": "null", 
      "name": "dense0__layer_25_batch_norm_gamma", 
      "attr": {"eps": "0.0001"}, 
      "inputs": []
    }, 
    {
      "op": "null", 
      "name": "dense0__layer_25_batch_norm_beta", 
      "attr": {"eps": "0.0001"}, 
      "inputs": []
    }, 
    {
      "op": "null", 
      "name": "dense0__layer_25_batch_norm_moving_mean", 
      "attr": {
        "__init__": "[\"zero\", {}]", 
        "eps": "0.0001"
      }, 
      "inputs": []
    }, 
    {
      "op": "null", 
      "name": "dense0__layer_25_batch_norm_moving_var", 
      "attr": {
        "__init__": "[\"one\", {}]", 
        "eps": "0.0001"
      }, 
      "inputs": []
    }, 
    {
      "op": "BatchNorm", 
      "name": "dense0__layer_25_batch_norm", 
      "attr": {"eps": "0.0001"}, 
      "inputs": [[228, 0, 0], [229, 0, 0], [230, 0, 0], [231, 0, 1], [232, 0, 1]]
    }, 
    {
      "op": "Activation", 
      "name": "dense0__layer_25_relu", 
      "attr": {"act_type": "relu"}, 
      "inputs": [[233, 0, 0]]
    }, 
    {
      "op": "null", 
      "name": "dense0__layer_25_conv_weight", 
      "attr": {
        "kernel": "(3, 3)", 
        "no_bias": "True", 
        "num_filter": "8", 
        "pad": "(1, 1)", 
        "stride": "(1, 1)"
      }, 
      "inputs": []
    }, 
    {
      "op": "Convolution", 
      "name": "dense0__layer_25_conv", 
      "attr": {
        "kernel": "(3, 3)", 
        "no_bias": "True", 
        "num_filter": "8", 
        "pad": "(1, 1)", 
        "stride": "(1, 1)"
      }, 
      "inputs": [[234, 0, 0], [235, 0, 0]]
    }, 
    {
      "op": "Concat", 
      "name": "dense0__concat_25", 
      "attr": {"num_args": "2"}, 
      "inputs": [[228, 0, 0], [236, 0, 0]]
    }, 
    {
      "op": "null", 
      "name": "dense0__layer_26_batch_norm_gamma", 
      "attr": {"eps": "0.0001"}, 
      "inputs": []
    }, 
    {
      "op": "null", 
      "name": "dense0__layer_26_batch_norm_beta", 
      "attr": {"eps": "0.0001"}, 
      "inputs": []
    }, 
    {
      "op": "null", 
      "name": "dense0__layer_26_batch_norm_moving_mean", 
      "attr": {
        "__init__": "[\"zero\", {}]", 
        "eps": "0.0001"
      }, 
      "inputs": []
    }, 
    {
      "op": "null", 
      "name": "dense0__layer_26_batch_norm_moving_var", 
      "attr": {
        "__init__": "[\"one\", {}]", 
        "eps": "0.0001"
      }, 
      "inputs": []
    }, 
    {
      "op": "BatchNorm", 
      "name": "dense0__layer_26_batch_norm", 
      "attr": {"eps": "0.0001"}, 
      "inputs": [[237, 0, 0], [238, 0, 0], [239, 0, 0], [240, 0, 1], [241, 0, 1]]
    }, 
    {
      "op": "Activation", 
      "name": "dense0__layer_26_relu", 
      "attr": {"act_type": "relu"}, 
      "inputs": [[242, 0, 0]]
    }, 
    {
      "op": "null", 
      "name": "dense0__layer_26_conv_weight", 
      "attr": {
        "kernel": "(3, 3)", 
        "no_bias": "True", 
        "num_filter": "8", 
        "pad": "(1, 1)", 
        "stride": "(1, 1)"
      }, 
      "inputs": []
    }, 
    {
      "op": "Convolution", 
      "name": "dense0__layer_26_conv", 
      "attr": {
        "kernel": "(3, 3)", 
        "no_bias": "True", 
        "num_filter": "8", 
        "pad": "(1, 1)", 
        "stride": "(1, 1)"
      }, 
      "inputs": [[243, 0, 0], [244, 0, 0]]
    }, 
    {
      "op": "Concat", 
      "name": "dense0__concat_26", 
      "attr": {"num_args": "2"}, 
      "inputs": [[237, 0, 0], [245, 0, 0]]
    }, 
    {
      "op": "null", 
      "name": "dense0__layer_27_batch_norm_gamma", 
      "attr": {"eps": "0.0001"}, 
      "inputs": []
    }, 
    {
      "op": "null", 
      "name": "dense0__layer_27_batch_norm_beta", 
      "attr": {"eps": "0.0001"}, 
      "inputs": []
    }, 
    {
      "op": "null", 
      "name": "dense0__layer_27_batch_norm_moving_mean", 
      "attr": {
        "__init__": "[\"zero\", {}]", 
        "eps": "0.0001"
      }, 
      "inputs": []
    }, 
    {
      "op": "null", 
      "name": "dense0__layer_27_batch_norm_moving_var", 
      "attr": {
        "__init__": "[\"one\", {}]", 
        "eps": "0.0001"
      }, 
      "inputs": []
    }, 
    {
      "op": "BatchNorm", 
      "name": "dense0__layer_27_batch_norm", 
      "attr": {"eps": "0.0001"}, 
      "inputs": [[246, 0, 0], [247, 0, 0], [248, 0, 0], [249, 0, 1], [250, 0, 1]]
    }, 
    {
      "op": "Activation", 
      "name": "dense0__layer_27_relu", 
      "attr": {"act_type": "relu"}, 
      "inputs": [[251, 0, 0]]
    }, 
    {
      "op": "null", 
      "name": "dense0__layer_27_conv_weight", 
      "attr": {
        "kernel": "(3, 3)", 
        "no_bias": "True", 
        "num_filter": "8", 
        "pad": "(1, 1)", 
        "stride": "(1, 1)"
      }, 
      "inputs": []
    }, 
    {
      "op": "Convolution", 
      "name": "dense0__layer_27_conv", 
      "attr": {
        "kernel": "(3, 3)", 
        "no_bias": "True", 
        "num_filter": "8", 
        "pad": "(1, 1)", 
        "stride": "(1, 1)"
      }, 
      "inputs": [[252, 0, 0], [253, 0, 0]]
    }, 
    {
      "op": "Concat", 
      "name": "dense0__concat_27", 
      "attr": {"num_args": "2"}, 
      "inputs": [[246, 0, 0], [254, 0, 0]]
    }, 
    {
      "op": "null", 
      "name": "dense0__layer_28_batch_norm_gamma", 
      "attr": {"eps": "0.0001"}, 
      "inputs": []
    }, 
    {
      "op": "null", 
      "name": "dense0__layer_28_batch_norm_beta", 
      "attr": {"eps": "0.0001"}, 
      "inputs": []
    }, 
    {
      "op": "null", 
      "name": "dense0__layer_28_batch_norm_moving_mean", 
      "attr": {
        "__init__": "[\"zero\", {}]", 
        "eps": "0.0001"
      }, 
      "inputs": []
    }, 
    {
      "op": "null", 
      "name": "dense0__layer_28_batch_norm_moving_var", 
      "attr": {
        "__init__": "[\"one\", {}]", 
        "eps": "0.0001"
      }, 
      "inputs": []
    }, 
    {
      "op": "BatchNorm", 
      "name": "dense0__layer_28_batch_norm", 
      "attr": {"eps": "0.0001"}, 
      "inputs": [[255, 0, 0], [256, 0, 0], [257, 0, 0], [258, 0, 1], [259, 0, 1]]
    }, 
    {
      "op": "Activation", 
      "name": "dense0__layer_28_relu", 
      "attr": {"act_type": "relu"}, 
      "inputs": [[260, 0, 0]]
    }, 
    {
      "op": "null", 
      "name": "dense0__layer_28_conv_weight", 
      "attr": {
        "kernel": "(3, 3)", 
        "no_bias": "True", 
        "num_filter": "8", 
        "pad": "(1, 1)", 
        "stride": "(1, 1)"
      }, 
      "inputs": []
    }, 
    {
      "op": "Convolution", 
      "name": "dense0__layer_28_conv", 
      "attr": {
        "kernel": "(3, 3)", 
        "no_bias": "True", 
        "num_filter": "8", 
        "pad": "(1, 1)", 
        "stride": "(1, 1)"
      }, 
      "inputs": [[261, 0, 0], [262, 0, 0]]
    }, 
    {
      "op": "Concat", 
      "name": "dense0__concat_28", 
      "attr": {"num_args": "2"}, 
      "inputs": [[255, 0, 0], [263, 0, 0]]
    }, 
    {
      "op": "null", 
      "name": "dense0__layer_29_batch_norm_gamma", 
      "attr": {"eps": "0.0001"}, 
      "inputs": []
    }, 
    {
      "op": "null", 
      "name": "dense0__layer_29_batch_norm_beta", 
      "attr": {"eps": "0.0001"}, 
      "inputs": []
    }, 
    {
      "op": "null", 
      "name": "dense0__layer_29_batch_norm_moving_mean", 
      "attr": {
        "__init__": "[\"zero\", {}]", 
        "eps": "0.0001"
      }, 
      "inputs": []
    }, 
    {
      "op": "null", 
      "name": "dense0__layer_29_batch_norm_moving_var", 
      "attr": {
        "__init__": "[\"one\", {}]", 
        "eps": "0.0001"
      }, 
      "inputs": []
    }, 
    {
      "op": "BatchNorm", 
      "name": "dense0__layer_29_batch_norm", 
      "attr": {"eps": "0.0001"}, 
      "inputs": [[264, 0, 0], [265, 0, 0], [266, 0, 0], [267, 0, 1], [268, 0, 1]]
    }, 
    {
      "op": "Activation", 
      "name": "dense0__layer_29_relu", 
      "attr": {"act_type": "relu"}, 
      "inputs": [[269, 0, 0]]
    }, 
    {
      "op": "null", 
      "name": "dense0__layer_29_conv_weight", 
      "attr": {
        "kernel": "(3, 3)", 
        "no_bias": "True", 
        "num_filter": "8", 
        "pad": "(1, 1)", 
        "stride": "(1, 1)"
      }, 
      "inputs": []
    }, 
    {
      "op": "Convolution", 
      "name": "dense0__layer_29_conv", 
      "attr": {
        "kernel": "(3, 3)", 
        "no_bias": "True", 
        "num_filter": "8", 
        "pad": "(1, 1)", 
        "stride": "(1, 1)"
      }, 
      "inputs": [[270, 0, 0], [271, 0, 0]]
    }, 
    {
      "op": "Concat", 
      "name": "dense0__concat_29", 
      "attr": {"num_args": "2"}, 
      "inputs": [[264, 0, 0], [272, 0, 0]]
    }, 
    {
      "op": "null", 
      "name": "dense0__layer_30_batch_norm_gamma", 
      "attr": {"eps": "0.0001"}, 
      "inputs": []
    }, 
    {
      "op": "null", 
      "name": "dense0__layer_30_batch_norm_beta", 
      "attr": {"eps": "0.0001"}, 
      "inputs": []
    }, 
    {
      "op": "null", 
      "name": "dense0__layer_30_batch_norm_moving_mean", 
      "attr": {
        "__init__": "[\"zero\", {}]", 
        "eps": "0.0001"
      }, 
      "inputs": []
    }, 
    {
      "op": "null", 
      "name": "dense0__layer_30_batch_norm_moving_var", 
      "attr": {
        "__init__": "[\"one\", {}]", 
        "eps": "0.0001"
      }, 
      "inputs": []
    }, 
    {
      "op": "BatchNorm", 
      "name": "dense0__layer_30_batch_norm", 
      "attr": {"eps": "0.0001"}, 
      "inputs": [[273, 0, 0], [274, 0, 0], [275, 0, 0], [276, 0, 1], [277, 0, 1]]
    }, 
    {
      "op": "Activation", 
      "name": "dense0__layer_30_relu", 
      "attr": {"act_type": "relu"}, 
      "inputs": [[278, 0, 0]]
    }, 
    {
      "op": "null", 
      "name": "dense0__layer_30_conv_weight", 
      "attr": {
        "kernel": "(3, 3)", 
        "no_bias": "True", 
        "num_filter": "8", 
        "pad": "(1, 1)", 
        "stride": "(1, 1)"
      }, 
      "inputs": []
    }, 
    {
      "op": "Convolution", 
      "name": "dense0__layer_30_conv", 
      "attr": {
        "kernel": "(3, 3)", 
        "no_bias": "True", 
        "num_filter": "8", 
        "pad": "(1, 1)", 
        "stride": "(1, 1)"
      }, 
      "inputs": [[279, 0, 0], [280, 0, 0]]
    }, 
    {
      "op": "Concat", 
      "name": "dense0__concat_30", 
      "attr": {"num_args": "2"}, 
      "inputs": [[273, 0, 0], [281, 0, 0]]
    }, 
    {
      "op": "null", 
      "name": "dense0__layer_31_batch_norm_gamma", 
      "attr": {"eps": "0.0001"}, 
      "inputs": []
    }, 
    {
      "op": "null", 
      "name": "dense0__layer_31_batch_norm_beta", 
      "attr": {"eps": "0.0001"}, 
      "inputs": []
    }, 
    {
      "op": "null", 
      "name": "dense0__layer_31_batch_norm_moving_mean", 
      "attr": {
        "__init__": "[\"zero\", {}]", 
        "eps": "0.0001"
      }, 
      "inputs": []
    }, 
    {
      "op": "null", 
      "name": "dense0__layer_31_batch_norm_moving_var", 
      "attr": {
        "__init__": "[\"one\", {}]", 
        "eps": "0.0001"
      }, 
      "inputs": []
    }, 
    {
      "op": "BatchNorm", 
      "name": "dense0__layer_31_batch_norm", 
      "attr": {"eps": "0.0001"}, 
      "inputs": [[282, 0, 0], [283, 0, 0], [284, 0, 0], [285, 0, 1], [286, 0, 1]]
    }, 
    {
      "op": "Activation", 
      "name": "dense0__layer_31_relu", 
      "attr": {"act_type": "relu"}, 
      "inputs": [[287, 0, 0]]
    }, 
    {
      "op": "null", 
      "name": "dense0__layer_31_conv_weight", 
      "attr": {
        "kernel": "(3, 3)", 
        "no_bias": "True", 
        "num_filter": "8", 
        "pad": "(1, 1)", 
        "stride": "(1, 1)"
      }, 
      "inputs": []
    }, 
    {
      "op": "Convolution", 
      "name": "dense0__layer_31_conv", 
      "attr": {
        "kernel": "(3, 3)", 
        "no_bias": "True", 
        "num_filter": "8", 
        "pad": "(1, 1)", 
        "stride": "(1, 1)"
      }, 
      "inputs": [[288, 0, 0], [289, 0, 0]]
    }, 
    {
      "op": "Concat", 
      "name": "dense0__concat_31", 
      "attr": {"num_args": "2"}, 
      "inputs": [[282, 0, 0], [290, 0, 0]]
    }, 
    {
      "op": "null", 
      "name": "trans0__batch_norm_gamma", 
      "attr": {"eps": "0.0001"}, 
      "inputs": []
    }, 
    {
      "op": "null", 
      "name": "trans0__batch_norm_beta", 
      "attr": {"eps": "0.0001"}, 
      "inputs": []
    }, 
    {
      "op": "null", 
      "name": "trans0__batch_norm_moving_mean", 
      "attr": {
        "__init__": "[\"zero\", {}]", 
        "eps": "0.0001"
      }, 
      "inputs": []
    }, 
    {
      "op": "null", 
      "name": "trans0__batch_norm_moving_var", 
      "attr": {
        "__init__": "[\"one\", {}]", 
        "eps": "0.0001"
      }, 
      "inputs": []
    }, 
    {
      "op": "BatchNorm", 
      "name": "trans0__batch_norm", 
      "attr": {"eps": "0.0001"}, 
      "inputs": [[291, 0, 0], [292, 0, 0], [293, 0, 0], [294, 0, 1], [295, 0, 1]]
    }, 
    {
      "op": "Activation", 
      "name": "trans0__relu", 
      "attr": {"act_type": "relu"}, 
      "inputs": [[296, 0, 0]]
    }, 
    {
      "op": "null", 
      "name": "trans0__dconv_weight", 
      "attr": {
        "kernel": "(4, 4)", 
        "no_bias": "True", 
        "num_filter": "128", 
        "pad": "(1, 1)", 
        "stride": "(2, 2)"
      }, 
      "inputs": []
    }, 
    {
      "op": "Deconvolution", 
      "name": "trans0__dconv", 
      "attr": {
        "kernel": "(4, 4)", 
        "no_bias": "True", 
        "num_filter": "128", 
        "pad": "(1, 1)", 
        "stride": "(2, 2)"
      }, 
      "inputs": [[297, 0, 0], [298, 0, 0]]
    }, 
    {
      "op": "null", 
      "name": "dense1__layer_0_batch_norm_gamma", 
      "attr": {"eps": "0.0001"}, 
      "inputs": []
    }, 
    {
      "op": "null", 
      "name": "dense1__layer_0_batch_norm_beta", 
      "attr": {"eps": "0.0001"}, 
      "inputs": []
    }, 
    {
      "op": "null", 
      "name": "dense1__layer_0_batch_norm_moving_mean", 
      "attr": {
        "__init__": "[\"zero\", {}]", 
        "eps": "0.0001"
      }, 
      "inputs": []
    }, 
    {
      "op": "null", 
      "name": "dense1__layer_0_batch_norm_moving_var", 
      "attr": {
        "__init__": "[\"one\", {}]", 
        "eps": "0.0001"
      }, 
      "inputs": []
    }, 
    {
      "op": "BatchNorm", 
      "name": "dense1__layer_0_batch_norm", 
      "attr": {"eps": "0.0001"}, 
      "inputs": [[299, 0, 0], [300, 0, 0], [301, 0, 0], [302, 0, 1], [303, 0, 1]]
    }, 
    {
      "op": "Activation", 
      "name": "dense1__layer_0_relu", 
      "attr": {"act_type": "relu"}, 
      "inputs": [[304, 0, 0]]
    }, 
    {
      "op": "null", 
      "name": "dense1__layer_0_conv_weight", 
      "attr": {
        "kernel": "(3, 3)", 
        "no_bias": "True", 
        "num_filter": "8", 
        "pad": "(1, 1)", 
        "stride": "(1, 1)"
      }, 
      "inputs": []
    }, 
    {
      "op": "Convolution", 
      "name": "dense1__layer_0_conv", 
      "attr": {
        "kernel": "(3, 3)", 
        "no_bias": "True", 
        "num_filter": "8", 
        "pad": "(1, 1)", 
        "stride": "(1, 1)"
      }, 
      "inputs": [[305, 0, 0], [306, 0, 0]]
    }, 
    {
      "op": "Concat", 
      "name": "dense1__concat_0", 
      "attr": {"num_args": "2"}, 
      "inputs": [[299, 0, 0], [307, 0, 0]]
    }, 
    {
      "op": "null", 
      "name": "dense1__layer_1_batch_norm_gamma", 
      "attr": {"eps": "0.0001"}, 
      "inputs": []
    }, 
    {
      "op": "null", 
      "name": "dense1__layer_1_batch_norm_beta", 
      "attr": {"eps": "0.0001"}, 
      "inputs": []
    }, 
    {
      "op": "null", 
      "name": "dense1__layer_1_batch_norm_moving_mean", 
      "attr": {
        "__init__": "[\"zero\", {}]", 
        "eps": "0.0001"
      }, 
      "inputs": []
    }, 
    {
      "op": "null", 
      "name": "dense1__layer_1_batch_norm_moving_var", 
      "attr": {
        "__init__": "[\"one\", {}]", 
        "eps": "0.0001"
      }, 
      "inputs": []
    }, 
    {
      "op": "BatchNorm", 
      "name": "dense1__layer_1_batch_norm", 
      "attr": {"eps": "0.0001"}, 
      "inputs": [[308, 0, 0], [309, 0, 0], [310, 0, 0], [311, 0, 1], [312, 0, 1]]
    }, 
    {
      "op": "Activation", 
      "name": "dense1__layer_1_relu", 
      "attr": {"act_type": "relu"}, 
      "inputs": [[313, 0, 0]]
    }, 
    {
      "op": "null", 
      "name": "dense1__layer_1_conv_weight", 
      "attr": {
        "kernel": "(3, 3)", 
        "no_bias": "True", 
        "num_filter": "8", 
        "pad": "(1, 1)", 
        "stride": "(1, 1)"
      }, 
      "inputs": []
    }, 
    {
      "op": "Convolution", 
      "name": "dense1__layer_1_conv", 
      "attr": {
        "kernel": "(3, 3)", 
        "no_bias": "True", 
        "num_filter": "8", 
        "pad": "(1, 1)", 
        "stride": "(1, 1)"
      }, 
      "inputs": [[314, 0, 0], [315, 0, 0]]
    }, 
    {
      "op": "Concat", 
      "name": "dense1__concat_1", 
      "attr": {"num_args": "2"}, 
      "inputs": [[308, 0, 0], [316, 0, 0]]
    }, 
    {
      "op": "null", 
      "name": "dense1__layer_2_batch_norm_gamma", 
      "attr": {"eps": "0.0001"}, 
      "inputs": []
    }, 
    {
      "op": "null", 
      "name": "dense1__layer_2_batch_norm_beta", 
      "attr": {"eps": "0.0001"}, 
      "inputs": []
    }, 
    {
      "op": "null", 
      "name": "dense1__layer_2_batch_norm_moving_mean", 
      "attr": {
        "__init__": "[\"zero\", {}]", 
        "eps": "0.0001"
      }, 
      "inputs": []
    }, 
    {
      "op": "null", 
      "name": "dense1__layer_2_batch_norm_moving_var", 
      "attr": {
        "__init__": "[\"one\", {}]", 
        "eps": "0.0001"
      }, 
      "inputs": []
    }, 
    {
      "op": "BatchNorm", 
      "name": "dense1__layer_2_batch_norm", 
      "attr": {"eps": "0.0001"}, 
      "inputs": [[317, 0, 0], [318, 0, 0], [319, 0, 0], [320, 0, 1], [321, 0, 1]]
    }, 
    {
      "op": "Activation", 
      "name": "dense1__layer_2_relu", 
      "attr": {"act_type": "relu"}, 
      "inputs": [[322, 0, 0]]
    }, 
    {
      "op": "null", 
      "name": "dense1__layer_2_conv_weight", 
      "attr": {
        "kernel": "(3, 3)", 
        "no_bias": "True", 
        "num_filter": "8", 
        "pad": "(1, 1)", 
        "stride": "(1, 1)"
      }, 
      "inputs": []
    }, 
    {
      "op": "Convolution", 
      "name": "dense1__layer_2_conv", 
      "attr": {
        "kernel": "(3, 3)", 
        "no_bias": "True", 
        "num_filter": "8", 
        "pad": "(1, 1)", 
        "stride": "(1, 1)"
      }, 
      "inputs": [[323, 0, 0], [324, 0, 0]]
    }, 
    {
      "op": "Concat", 
      "name": "dense1__concat_2", 
      "attr": {"num_args": "2"}, 
      "inputs": [[317, 0, 0], [325, 0, 0]]
    }, 
    {
      "op": "null", 
      "name": "dense1__layer_3_batch_norm_gamma", 
      "attr": {"eps": "0.0001"}, 
      "inputs": []
    }, 
    {
      "op": "null", 
      "name": "dense1__layer_3_batch_norm_beta", 
      "attr": {"eps": "0.0001"}, 
      "inputs": []
    }, 
    {
      "op": "null", 
      "name": "dense1__layer_3_batch_norm_moving_mean", 
      "attr": {
        "__init__": "[\"zero\", {}]", 
        "eps": "0.0001"
      }, 
      "inputs": []
    }, 
    {
      "op": "null", 
      "name": "dense1__layer_3_batch_norm_moving_var", 
      "attr": {
        "__init__": "[\"one\", {}]", 
        "eps": "0.0001"
      }, 
      "inputs": []
    }, 
    {
      "op": "BatchNorm", 
      "name": "dense1__layer_3_batch_norm", 
      "attr": {"eps": "0.0001"}, 
      "inputs": [[326, 0, 0], [327, 0, 0], [328, 0, 0], [329, 0, 1], [330, 0, 1]]
    }, 
    {
      "op": "Activation", 
      "name": "dense1__layer_3_relu", 
      "attr": {"act_type": "relu"}, 
      "inputs": [[331, 0, 0]]
    }, 
    {
      "op": "null", 
      "name": "dense1__layer_3_conv_weight", 
      "attr": {
        "kernel": "(3, 3)", 
        "no_bias": "True", 
        "num_filter": "8", 
        "pad": "(1, 1)", 
        "stride": "(1, 1)"
      }, 
      "inputs": []
    }, 
    {
      "op": "Convolution", 
      "name": "dense1__layer_3_conv", 
      "attr": {
        "kernel": "(3, 3)", 
        "no_bias": "True", 
        "num_filter": "8", 
        "pad": "(1, 1)", 
        "stride": "(1, 1)"
      }, 
      "inputs": [[332, 0, 0], [333, 0, 0]]
    }, 
    {
      "op": "Concat", 
      "name": "dense1__concat_3", 
      "attr": {"num_args": "2"}, 
      "inputs": [[326, 0, 0], [334, 0, 0]]
    }, 
    {
      "op": "null", 
      "name": "dense1__layer_4_batch_norm_gamma", 
      "attr": {"eps": "0.0001"}, 
      "inputs": []
    }, 
    {
      "op": "null", 
      "name": "dense1__layer_4_batch_norm_beta", 
      "attr": {"eps": "0.0001"}, 
      "inputs": []
    }, 
    {
      "op": "null", 
      "name": "dense1__layer_4_batch_norm_moving_mean", 
      "attr": {
        "__init__": "[\"zero\", {}]", 
        "eps": "0.0001"
      }, 
      "inputs": []
    }, 
    {
      "op": "null", 
      "name": "dense1__layer_4_batch_norm_moving_var", 
      "attr": {
        "__init__": "[\"one\", {}]", 
        "eps": "0.0001"
      }, 
      "inputs": []
    }, 
    {
      "op": "BatchNorm", 
      "name": "dense1__layer_4_batch_norm", 
      "attr": {"eps": "0.0001"}, 
      "inputs": [[335, 0, 0], [336, 0, 0], [337, 0, 0], [338, 0, 1], [339, 0, 1]]
    }, 
    {
      "op": "Activation", 
      "name": "dense1__layer_4_relu", 
      "attr": {"act_type": "relu"}, 
      "inputs": [[340, 0, 0]]
    }, 
    {
      "op": "null", 
      "name": "dense1__layer_4_conv_weight", 
      "attr": {
        "kernel": "(3, 3)", 
        "no_bias": "True", 
        "num_filter": "8", 
        "pad": "(1, 1)", 
        "stride": "(1, 1)"
      }, 
      "inputs": []
    }, 
    {
      "op": "Convolution", 
      "name": "dense1__layer_4_conv", 
      "attr": {
        "kernel": "(3, 3)", 
        "no_bias": "True", 
        "num_filter": "8", 
        "pad": "(1, 1)", 
        "stride": "(1, 1)"
      }, 
      "inputs": [[341, 0, 0], [342, 0, 0]]
    }, 
    {
      "op": "Concat", 
      "name": "dense1__concat_4", 
      "attr": {"num_args": "2"}, 
      "inputs": [[335, 0, 0], [343, 0, 0]]
    }, 
    {
      "op": "null", 
      "name": "dense1__layer_5_batch_norm_gamma", 
      "attr": {"eps": "0.0001"}, 
      "inputs": []
    }, 
    {
      "op": "null", 
      "name": "dense1__layer_5_batch_norm_beta", 
      "attr": {"eps": "0.0001"}, 
      "inputs": []
    }, 
    {
      "op": "null", 
      "name": "dense1__layer_5_batch_norm_moving_mean", 
      "attr": {
        "__init__": "[\"zero\", {}]", 
        "eps": "0.0001"
      }, 
      "inputs": []
    }, 
    {
      "op": "null", 
      "name": "dense1__layer_5_batch_norm_moving_var", 
      "attr": {
        "__init__": "[\"one\", {}]", 
        "eps": "0.0001"
      }, 
      "inputs": []
    }, 
    {
      "op": "BatchNorm", 
      "name": "dense1__layer_5_batch_norm", 
      "attr": {"eps": "0.0001"}, 
      "inputs": [[344, 0, 0], [345, 0, 0], [346, 0, 0], [347, 0, 1], [348, 0, 1]]
    }, 
    {
      "op": "Activation", 
      "name": "dense1__layer_5_relu", 
      "attr": {"act_type": "relu"}, 
      "inputs": [[349, 0, 0]]
    }, 
    {
      "op": "null", 
      "name": "dense1__layer_5_conv_weight", 
      "attr": {
        "kernel": "(3, 3)", 
        "no_bias": "True", 
        "num_filter": "8", 
        "pad": "(1, 1)", 
        "stride": "(1, 1)"
      }, 
      "inputs": []
    }, 
    {
      "op": "Convolution", 
      "name": "dense1__layer_5_conv", 
      "attr": {
        "kernel": "(3, 3)", 
        "no_bias": "True", 
        "num_filter": "8", 
        "pad": "(1, 1)", 
        "stride": "(1, 1)"
      }, 
      "inputs": [[350, 0, 0], [351, 0, 0]]
    }, 
    {
      "op": "Concat", 
      "name": "dense1__concat_5", 
      "attr": {"num_args": "2"}, 
      "inputs": [[344, 0, 0], [352, 0, 0]]
    }, 
    {
      "op": "null", 
      "name": "dense1__layer_6_batch_norm_gamma", 
      "attr": {"eps": "0.0001"}, 
      "inputs": []
    }, 
    {
      "op": "null", 
      "name": "dense1__layer_6_batch_norm_beta", 
      "attr": {"eps": "0.0001"}, 
      "inputs": []
    }, 
    {
      "op": "null", 
      "name": "dense1__layer_6_batch_norm_moving_mean", 
      "attr": {
        "__init__": "[\"zero\", {}]", 
        "eps": "0.0001"
      }, 
      "inputs": []
    }, 
    {
      "op": "null", 
      "name": "dense1__layer_6_batch_norm_moving_var", 
      "attr": {
        "__init__": "[\"one\", {}]", 
        "eps": "0.0001"
      }, 
      "inputs": []
    }, 
    {
      "op": "BatchNorm", 
      "name": "dense1__layer_6_batch_norm", 
      "attr": {"eps": "0.0001"}, 
      "inputs": [[353, 0, 0], [354, 0, 0], [355, 0, 0], [356, 0, 1], [357, 0, 1]]
    }, 
    {
      "op": "Activation", 
      "name": "dense1__layer_6_relu", 
      "attr": {"act_type": "relu"}, 
      "inputs": [[358, 0, 0]]
    }, 
    {
      "op": "null", 
      "name": "dense1__layer_6_conv_weight", 
      "attr": {
        "kernel": "(3, 3)", 
        "no_bias": "True", 
        "num_filter": "8", 
        "pad": "(1, 1)", 
        "stride": "(1, 1)"
      }, 
      "inputs": []
    }, 
    {
      "op": "Convolution", 
      "name": "dense1__layer_6_conv", 
      "attr": {
        "kernel": "(3, 3)", 
        "no_bias": "True", 
        "num_filter": "8", 
        "pad": "(1, 1)", 
        "stride": "(1, 1)"
      }, 
      "inputs": [[359, 0, 0], [360, 0, 0]]
    }, 
    {
      "op": "Concat", 
      "name": "dense1__concat_6", 
      "attr": {"num_args": "2"}, 
      "inputs": [[353, 0, 0], [361, 0, 0]]
    }, 
    {
      "op": "null", 
      "name": "dense1__layer_7_batch_norm_gamma", 
      "attr": {"eps": "0.0001"}, 
      "inputs": []
    }, 
    {
      "op": "null", 
      "name": "dense1__layer_7_batch_norm_beta", 
      "attr": {"eps": "0.0001"}, 
      "inputs": []
    }, 
    {
      "op": "null", 
      "name": "dense1__layer_7_batch_norm_moving_mean", 
      "attr": {
        "__init__": "[\"zero\", {}]", 
        "eps": "0.0001"
      }, 
      "inputs": []
    }, 
    {
      "op": "null", 
      "name": "dense1__layer_7_batch_norm_moving_var", 
      "attr": {
        "__init__": "[\"one\", {}]", 
        "eps": "0.0001"
      }, 
      "inputs": []
    }, 
    {
      "op": "BatchNorm", 
      "name": "dense1__layer_7_batch_norm", 
      "attr": {"eps": "0.0001"}, 
      "inputs": [[362, 0, 0], [363, 0, 0], [364, 0, 0], [365, 0, 1], [366, 0, 1]]
    }, 
    {
      "op": "Activation", 
      "name": "dense1__layer_7_relu", 
      "attr": {"act_type": "relu"}, 
      "inputs": [[367, 0, 0]]
    }, 
    {
      "op": "null", 
      "name": "dense1__layer_7_conv_weight", 
      "attr": {
        "kernel": "(3, 3)", 
        "no_bias": "True", 
        "num_filter": "8", 
        "pad": "(1, 1)", 
        "stride": "(1, 1)"
      }, 
      "inputs": []
    }, 
    {
      "op": "Convolution", 
      "name": "dense1__layer_7_conv", 
      "attr": {
        "kernel": "(3, 3)", 
        "no_bias": "True", 
        "num_filter": "8", 
        "pad": "(1, 1)", 
        "stride": "(1, 1)"
      }, 
      "inputs": [[368, 0, 0], [369, 0, 0]]
    }, 
    {
      "op": "Concat", 
      "name": "dense1__concat_7", 
      "attr": {"num_args": "2"}, 
      "inputs": [[362, 0, 0], [370, 0, 0]]
    }, 
    {
      "op": "null", 
      "name": "dense1__layer_8_batch_norm_gamma", 
      "attr": {"eps": "0.0001"}, 
      "inputs": []
    }, 
    {
      "op": "null", 
      "name": "dense1__layer_8_batch_norm_beta", 
      "attr": {"eps": "0.0001"}, 
      "inputs": []
    }, 
    {
      "op": "null", 
      "name": "dense1__layer_8_batch_norm_moving_mean", 
      "attr": {
        "__init__": "[\"zero\", {}]", 
        "eps": "0.0001"
      }, 
      "inputs": []
    }, 
    {
      "op": "null", 
      "name": "dense1__layer_8_batch_norm_moving_var", 
      "attr": {
        "__init__": "[\"one\", {}]", 
        "eps": "0.0001"
      }, 
      "inputs": []
    }, 
    {
      "op": "BatchNorm", 
      "name": "dense1__layer_8_batch_norm", 
      "attr": {"eps": "0.0001"}, 
      "inputs": [[371, 0, 0], [372, 0, 0], [373, 0, 0], [374, 0, 1], [375, 0, 1]]
    }, 
    {
      "op": "Activation", 
      "name": "dense1__layer_8_relu", 
      "attr": {"act_type": "relu"}, 
      "inputs": [[376, 0, 0]]
    }, 
    {
      "op": "null", 
      "name": "dense1__layer_8_conv_weight", 
      "attr": {
        "kernel": "(3, 3)", 
        "no_bias": "True", 
        "num_filter": "8", 
        "pad": "(1, 1)", 
        "stride": "(1, 1)"
      }, 
      "inputs": []
    }, 
    {
      "op": "Convolution", 
      "name": "dense1__layer_8_conv", 
      "attr": {
        "kernel": "(3, 3)", 
        "no_bias": "True", 
        "num_filter": "8", 
        "pad": "(1, 1)", 
        "stride": "(1, 1)"
      }, 
      "inputs": [[377, 0, 0], [378, 0, 0]]
    }, 
    {
      "op": "Concat", 
      "name": "dense1__concat_8", 
      "attr": {"num_args": "2"}, 
      "inputs": [[371, 0, 0], [379, 0, 0]]
    }, 
    {
      "op": "null", 
      "name": "dense1__layer_9_batch_norm_gamma", 
      "attr": {"eps": "0.0001"}, 
      "inputs": []
    }, 
    {
      "op": "null", 
      "name": "dense1__layer_9_batch_norm_beta", 
      "attr": {"eps": "0.0001"}, 
      "inputs": []
    }, 
    {
      "op": "null", 
      "name": "dense1__layer_9_batch_norm_moving_mean", 
      "attr": {
        "__init__": "[\"zero\", {}]", 
        "eps": "0.0001"
      }, 
      "inputs": []
    }, 
    {
      "op": "null", 
      "name": "dense1__layer_9_batch_norm_moving_var", 
      "attr": {
        "__init__": "[\"one\", {}]", 
        "eps": "0.0001"
      }, 
      "inputs": []
    }, 
    {
      "op": "BatchNorm", 
      "name": "dense1__layer_9_batch_norm", 
      "attr": {"eps": "0.0001"}, 
      "inputs": [[380, 0, 0], [381, 0, 0], [382, 0, 0], [383, 0, 1], [384, 0, 1]]
    }, 
    {
      "op": "Activation", 
      "name": "dense1__layer_9_relu", 
      "attr": {"act_type": "relu"}, 
      "inputs": [[385, 0, 0]]
    }, 
    {
      "op": "null", 
      "name": "dense1__layer_9_conv_weight", 
      "attr": {
        "kernel": "(3, 3)", 
        "no_bias": "True", 
        "num_filter": "8", 
        "pad": "(1, 1)", 
        "stride": "(1, 1)"
      }, 
      "inputs": []
    }, 
    {
      "op": "Convolution", 
      "name": "dense1__layer_9_conv", 
      "attr": {
        "kernel": "(3, 3)", 
        "no_bias": "True", 
        "num_filter": "8", 
        "pad": "(1, 1)", 
        "stride": "(1, 1)"
      }, 
      "inputs": [[386, 0, 0], [387, 0, 0]]
    }, 
    {
      "op": "Concat", 
      "name": "dense1__concat_9", 
      "attr": {"num_args": "2"}, 
      "inputs": [[380, 0, 0], [388, 0, 0]]
    }, 
    {
      "op": "null", 
      "name": "dense1__layer_10_batch_norm_gamma", 
      "attr": {"eps": "0.0001"}, 
      "inputs": []
    }, 
    {
      "op": "null", 
      "name": "dense1__layer_10_batch_norm_beta", 
      "attr": {"eps": "0.0001"}, 
      "inputs": []
    }, 
    {
      "op": "null", 
      "name": "dense1__layer_10_batch_norm_moving_mean", 
      "attr": {
        "__init__": "[\"zero\", {}]", 
        "eps": "0.0001"
      }, 
      "inputs": []
    }, 
    {
      "op": "null", 
      "name": "dense1__layer_10_batch_norm_moving_var", 
      "attr": {
        "__init__": "[\"one\", {}]", 
        "eps": "0.0001"
      }, 
      "inputs": []
    }, 
    {
      "op": "BatchNorm", 
      "name": "dense1__layer_10_batch_norm", 
      "attr": {"eps": "0.0001"}, 
      "inputs": [[389, 0, 0], [390, 0, 0], [391, 0, 0], [392, 0, 1], [393, 0, 1]]
    }, 
    {
      "op": "Activation", 
      "name": "dense1__layer_10_relu", 
      "attr": {"act_type": "relu"}, 
      "inputs": [[394, 0, 0]]
    }, 
    {
      "op": "null", 
      "name": "dense1__layer_10_conv_weight", 
      "attr": {
        "kernel": "(3, 3)", 
        "no_bias": "True", 
        "num_filter": "8", 
        "pad": "(1, 1)", 
        "stride": "(1, 1)"
      }, 
      "inputs": []
    }, 
    {
      "op": "Convolution", 
      "name": "dense1__layer_10_conv", 
      "attr": {
        "kernel": "(3, 3)", 
        "no_bias": "True", 
        "num_filter": "8", 
        "pad": "(1, 1)", 
        "stride": "(1, 1)"
      }, 
      "inputs": [[395, 0, 0], [396, 0, 0]]
    }, 
    {
      "op": "Concat", 
      "name": "dense1__concat_10", 
      "attr": {"num_args": "2"}, 
      "inputs": [[389, 0, 0], [397, 0, 0]]
    }, 
    {
      "op": "null", 
      "name": "dense1__layer_11_batch_norm_gamma", 
      "attr": {"eps": "0.0001"}, 
      "inputs": []
    }, 
    {
      "op": "null", 
      "name": "dense1__layer_11_batch_norm_beta", 
      "attr": {"eps": "0.0001"}, 
      "inputs": []
    }, 
    {
      "op": "null", 
      "name": "dense1__layer_11_batch_norm_moving_mean", 
      "attr": {
        "__init__": "[\"zero\", {}]", 
        "eps": "0.0001"
      }, 
      "inputs": []
    }, 
    {
      "op": "null", 
      "name": "dense1__layer_11_batch_norm_moving_var", 
      "attr": {
        "__init__": "[\"one\", {}]", 
        "eps": "0.0001"
      }, 
      "inputs": []
    }, 
    {
      "op": "BatchNorm", 
      "name": "dense1__layer_11_batch_norm", 
      "attr": {"eps": "0.0001"}, 
      "inputs": [[398, 0, 0], [399, 0, 0], [400, 0, 0], [401, 0, 1], [402, 0, 1]]
    }, 
    {
      "op": "Activation", 
      "name": "dense1__layer_11_relu", 
      "attr": {"act_type": "relu"}, 
      "inputs": [[403, 0, 0]]
    }, 
    {
      "op": "null", 
      "name": "dense1__layer_11_conv_weight", 
      "attr": {
        "kernel": "(3, 3)", 
        "no_bias": "True", 
        "num_filter": "8", 
        "pad": "(1, 1)", 
        "stride": "(1, 1)"
      }, 
      "inputs": []
    }, 
    {
      "op": "Convolution", 
      "name": "dense1__layer_11_conv", 
      "attr": {
        "kernel": "(3, 3)", 
        "no_bias": "True", 
        "num_filter": "8", 
        "pad": "(1, 1)", 
        "stride": "(1, 1)"
      }, 
      "inputs": [[404, 0, 0], [405, 0, 0]]
    }, 
    {
      "op": "Concat", 
      "name": "dense1__concat_11", 
      "attr": {"num_args": "2"}, 
      "inputs": [[398, 0, 0], [406, 0, 0]]
    }, 
    {
      "op": "null", 
      "name": "dense1__layer_12_batch_norm_gamma", 
      "attr": {"eps": "0.0001"}, 
      "inputs": []
    }, 
    {
      "op": "null", 
      "name": "dense1__layer_12_batch_norm_beta", 
      "attr": {"eps": "0.0001"}, 
      "inputs": []
    }, 
    {
      "op": "null", 
      "name": "dense1__layer_12_batch_norm_moving_mean", 
      "attr": {
        "__init__": "[\"zero\", {}]", 
        "eps": "0.0001"
      }, 
      "inputs": []
    }, 
    {
      "op": "null", 
      "name": "dense1__layer_12_batch_norm_moving_var", 
      "attr": {
        "__init__": "[\"one\", {}]", 
        "eps": "0.0001"
      }, 
      "inputs": []
    }, 
    {
      "op": "BatchNorm", 
      "name": "dense1__layer_12_batch_norm", 
      "attr": {"eps": "0.0001"}, 
      "inputs": [[407, 0, 0], [408, 0, 0], [409, 0, 0], [410, 0, 1], [411, 0, 1]]
    }, 
    {
      "op": "Activation", 
      "name": "dense1__layer_12_relu", 
      "attr": {"act_type": "relu"}, 
      "inputs": [[412, 0, 0]]
    }, 
    {
      "op": "null", 
      "name": "dense1__layer_12_conv_weight", 
      "attr": {
        "kernel": "(3, 3)", 
        "no_bias": "True", 
        "num_filter": "8", 
        "pad": "(1, 1)", 
        "stride": "(1, 1)"
      }, 
      "inputs": []
    }, 
    {
      "op": "Convolution", 
      "name": "dense1__layer_12_conv", 
      "attr": {
        "kernel": "(3, 3)", 
        "no_bias": "True", 
        "num_filter": "8", 
        "pad": "(1, 1)", 
        "stride": "(1, 1)"
      }, 
      "inputs": [[413, 0, 0], [414, 0, 0]]
    }, 
    {
      "op": "Concat", 
      "name": "dense1__concat_12", 
      "attr": {"num_args": "2"}, 
      "inputs": [[407, 0, 0], [415, 0, 0]]
    }, 
    {
      "op": "null", 
      "name": "dense1__layer_13_batch_norm_gamma", 
      "attr": {"eps": "0.0001"}, 
      "inputs": []
    }, 
    {
      "op": "null", 
      "name": "dense1__layer_13_batch_norm_beta", 
      "attr": {"eps": "0.0001"}, 
      "inputs": []
    }, 
    {
      "op": "null", 
      "name": "dense1__layer_13_batch_norm_moving_mean", 
      "attr": {
        "__init__": "[\"zero\", {}]", 
        "eps": "0.0001"
      }, 
      "inputs": []
    }, 
    {
      "op": "null", 
      "name": "dense1__layer_13_batch_norm_moving_var", 
      "attr": {
        "__init__": "[\"one\", {}]", 
        "eps": "0.0001"
      }, 
      "inputs": []
    }, 
    {
      "op": "BatchNorm", 
      "name": "dense1__layer_13_batch_norm", 
      "attr": {"eps": "0.0001"}, 
      "inputs": [[416, 0, 0], [417, 0, 0], [418, 0, 0], [419, 0, 1], [420, 0, 1]]
    }, 
    {
      "op": "Activation", 
      "name": "dense1__layer_13_relu", 
      "attr": {"act_type": "relu"}, 
      "inputs": [[421, 0, 0]]
    }, 
    {
      "op": "null", 
      "name": "dense1__layer_13_conv_weight", 
      "attr": {
        "kernel": "(3, 3)", 
        "no_bias": "True", 
        "num_filter": "8", 
        "pad": "(1, 1)", 
        "stride": "(1, 1)"
      }, 
      "inputs": []
    }, 
    {
      "op": "Convolution", 
      "name": "dense1__layer_13_conv", 
      "attr": {
        "kernel": "(3, 3)", 
        "no_bias": "True", 
        "num_filter": "8", 
        "pad": "(1, 1)", 
        "stride": "(1, 1)"
      }, 
      "inputs": [[422, 0, 0], [423, 0, 0]]
    }, 
    {
      "op": "Concat", 
      "name": "dense1__concat_13", 
      "attr": {"num_args": "2"}, 
      "inputs": [[416, 0, 0], [424, 0, 0]]
    }, 
    {
      "op": "null", 
      "name": "dense1__layer_14_batch_norm_gamma", 
      "attr": {"eps": "0.0001"}, 
      "inputs": []
    }, 
    {
      "op": "null", 
      "name": "dense1__layer_14_batch_norm_beta", 
      "attr": {"eps": "0.0001"}, 
      "inputs": []
    }, 
    {
      "op": "null", 
      "name": "dense1__layer_14_batch_norm_moving_mean", 
      "attr": {
        "__init__": "[\"zero\", {}]", 
        "eps": "0.0001"
      }, 
      "inputs": []
    }, 
    {
      "op": "null", 
      "name": "dense1__layer_14_batch_norm_moving_var", 
      "attr": {
        "__init__": "[\"one\", {}]", 
        "eps": "0.0001"
      }, 
      "inputs": []
    }, 
    {
      "op": "BatchNorm", 
      "name": "dense1__layer_14_batch_norm", 
      "attr": {"eps": "0.0001"}, 
      "inputs": [[425, 0, 0], [426, 0, 0], [427, 0, 0], [428, 0, 1], [429, 0, 1]]
    }, 
    {
      "op": "Activation", 
      "name": "dense1__layer_14_relu", 
      "attr": {"act_type": "relu"}, 
      "inputs": [[430, 0, 0]]
    }, 
    {
      "op": "null", 
      "name": "dense1__layer_14_conv_weight", 
      "attr": {
        "kernel": "(3, 3)", 
        "no_bias": "True", 
        "num_filter": "8", 
        "pad": "(1, 1)", 
        "stride": "(1, 1)"
      }, 
      "inputs": []
    }, 
    {
      "op": "Convolution", 
      "name": "dense1__layer_14_conv", 
      "attr": {
        "kernel": "(3, 3)", 
        "no_bias": "True", 
        "num_filter": "8", 
        "pad": "(1, 1)", 
        "stride": "(1, 1)"
      }, 
      "inputs": [[431, 0, 0], [432, 0, 0]]
    }, 
    {
      "op": "Concat", 
      "name": "dense1__concat_14", 
      "attr": {"num_args": "2"}, 
      "inputs": [[425, 0, 0], [433, 0, 0]]
    }, 
    {
      "op": "null", 
      "name": "dense1__layer_15_batch_norm_gamma", 
      "attr": {"eps": "0.0001"}, 
      "inputs": []
    }, 
    {
      "op": "null", 
      "name": "dense1__layer_15_batch_norm_beta", 
      "attr": {"eps": "0.0001"}, 
      "inputs": []
    }, 
    {
      "op": "null", 
      "name": "dense1__layer_15_batch_norm_moving_mean", 
      "attr": {
        "__init__": "[\"zero\", {}]", 
        "eps": "0.0001"
      }, 
      "inputs": []
    }, 
    {
      "op": "null", 
      "name": "dense1__layer_15_batch_norm_moving_var", 
      "attr": {
        "__init__": "[\"one\", {}]", 
        "eps": "0.0001"
      }, 
      "inputs": []
    }, 
    {
      "op": "BatchNorm", 
      "name": "dense1__layer_15_batch_norm", 
      "attr": {"eps": "0.0001"}, 
      "inputs": [[434, 0, 0], [435, 0, 0], [436, 0, 0], [437, 0, 1], [438, 0, 1]]
    }, 
    {
      "op": "Activation", 
      "name": "dense1__layer_15_relu", 
      "attr": {"act_type": "relu"}, 
      "inputs": [[439, 0, 0]]
    }, 
    {
      "op": "null", 
      "name": "dense1__layer_15_conv_weight", 
      "attr": {
        "kernel": "(3, 3)", 
        "no_bias": "True", 
        "num_filter": "8", 
        "pad": "(1, 1)", 
        "stride": "(1, 1)"
      }, 
      "inputs": []
    }, 
    {
      "op": "Convolution", 
      "name": "dense1__layer_15_conv", 
      "attr": {
        "kernel": "(3, 3)", 
        "no_bias": "True", 
        "num_filter": "8", 
        "pad": "(1, 1)", 
        "stride": "(1, 1)"
      }, 
      "inputs": [[440, 0, 0], [441, 0, 0]]
    }, 
    {
      "op": "Concat", 
      "name": "dense1__concat_15", 
      "attr": {"num_args": "2"}, 
      "inputs": [[434, 0, 0], [442, 0, 0]]
    }, 
    {
      "op": "null", 
      "name": "trans1__batch_norm_gamma", 
      "attr": {"eps": "0.0001"}, 
      "inputs": []
    }, 
    {
      "op": "null", 
      "name": "trans1__batch_norm_beta", 
      "attr": {"eps": "0.0001"}, 
      "inputs": []
    }, 
    {
      "op": "null", 
      "name": "trans1__batch_norm_moving_mean", 
      "attr": {
        "__init__": "[\"zero\", {}]", 
        "eps": "0.0001"
      }, 
      "inputs": []
    }, 
    {
      "op": "null", 
      "name": "trans1__batch_norm_moving_var", 
      "attr": {
        "__init__": "[\"one\", {}]", 
        "eps": "0.0001"
      }, 
      "inputs": []
    }, 
    {
      "op": "BatchNorm", 
      "name": "trans1__batch_norm", 
      "attr": {"eps": "0.0001"}, 
      "inputs": [[443, 0, 0], [444, 0, 0], [445, 0, 0], [446, 0, 1], [447, 0, 1]]
    }, 
    {
      "op": "Activation", 
      "name": "trans1__relu", 
      "attr": {"act_type": "relu"}, 
      "inputs": [[448, 0, 0]]
    }, 
    {
      "op": "null", 
      "name": "trans1__dconv_weight", 
      "attr": {
        "kernel": "(4, 4)", 
        "no_bias": "True", 
        "num_filter": "64", 
        "pad": "(1, 1)", 
        "stride": "(2, 2)"
      }, 
      "inputs": []
    }, 
    {
      "op": "Deconvolution", 
      "name": "trans1__dconv", 
      "attr": {
        "kernel": "(4, 4)", 
        "no_bias": "True", 
        "num_filter": "64", 
        "pad": "(1, 1)", 
        "stride": "(2, 2)"
      }, 
      "inputs": [[449, 0, 0], [450, 0, 0]]
    }, 
    {
      "op": "null", 
      "name": "dense2__layer_0_batch_norm_gamma", 
      "attr": {"eps": "0.0001"}, 
      "inputs": []
    }, 
    {
      "op": "null", 
      "name": "dense2__layer_0_batch_norm_beta", 
      "attr": {"eps": "0.0001"}, 
      "inputs": []
    }, 
    {
      "op": "null", 
      "name": "dense2__layer_0_batch_norm_moving_mean", 
      "attr": {
        "__init__": "[\"zero\", {}]", 
        "eps": "0.0001"
      }, 
      "inputs": []
    }, 
    {
      "op": "null", 
      "name": "dense2__layer_0_batch_norm_moving_var", 
      "attr": {
        "__init__": "[\"one\", {}]", 
        "eps": "0.0001"
      }, 
      "inputs": []
    }, 
    {
      "op": "BatchNorm", 
      "name": "dense2__layer_0_batch_norm", 
      "attr": {"eps": "0.0001"}, 
      "inputs": [[451, 0, 0], [452, 0, 0], [453, 0, 0], [454, 0, 1], [455, 0, 1]]
    }, 
    {
      "op": "Activation", 
      "name": "dense2__layer_0_relu", 
      "attr": {"act_type": "relu"}, 
      "inputs": [[456, 0, 0]]
    }, 
    {
      "op": "null", 
      "name": "dense2__layer_0_conv_weight", 
      "attr": {
        "kernel": "(3, 3)", 
        "no_bias": "True", 
        "num_filter": "8", 
        "pad": "(1, 1)", 
        "stride": "(1, 1)"
      }, 
      "inputs": []
    }, 
    {
      "op": "Convolution", 
      "name": "dense2__layer_0_conv", 
      "attr": {
        "kernel": "(3, 3)", 
        "no_bias": "True", 
        "num_filter": "8", 
        "pad": "(1, 1)", 
        "stride": "(1, 1)"
      }, 
      "inputs": [[457, 0, 0], [458, 0, 0]]
    }, 
    {
      "op": "Concat", 
      "name": "dense2__concat_0", 
      "attr": {"num_args": "2"}, 
      "inputs": [[451, 0, 0], [459, 0, 0]]
    }, 
    {
      "op": "null", 
      "name": "dense2__layer_1_batch_norm_gamma", 
      "attr": {"eps": "0.0001"}, 
      "inputs": []
    }, 
    {
      "op": "null", 
      "name": "dense2__layer_1_batch_norm_beta", 
      "attr": {"eps": "0.0001"}, 
      "inputs": []
    }, 
    {
      "op": "null", 
      "name": "dense2__layer_1_batch_norm_moving_mean", 
      "attr": {
        "__init__": "[\"zero\", {}]", 
        "eps": "0.0001"
      }, 
      "inputs": []
    }, 
    {
      "op": "null", 
      "name": "dense2__layer_1_batch_norm_moving_var", 
      "attr": {
        "__init__": "[\"one\", {}]", 
        "eps": "0.0001"
      }, 
      "inputs": []
    }, 
    {
      "op": "BatchNorm", 
      "name": "dense2__layer_1_batch_norm", 
      "attr": {"eps": "0.0001"}, 
      "inputs": [[460, 0, 0], [461, 0, 0], [462, 0, 0], [463, 0, 1], [464, 0, 1]]
    }, 
    {
      "op": "Activation", 
      "name": "dense2__layer_1_relu", 
      "attr": {"act_type": "relu"}, 
      "inputs": [[465, 0, 0]]
    }, 
    {
      "op": "null", 
      "name": "dense2__layer_1_conv_weight", 
      "attr": {
        "kernel": "(3, 3)", 
        "no_bias": "True", 
        "num_filter": "8", 
        "pad": "(1, 1)", 
        "stride": "(1, 1)"
      }, 
      "inputs": []
    }, 
    {
      "op": "Convolution", 
      "name": "dense2__layer_1_conv", 
      "attr": {
        "kernel": "(3, 3)", 
        "no_bias": "True", 
        "num_filter": "8", 
        "pad": "(1, 1)", 
        "stride": "(1, 1)"
      }, 
      "inputs": [[466, 0, 0], [467, 0, 0]]
    }, 
    {
      "op": "Concat", 
      "name": "dense2__concat_1", 
      "attr": {"num_args": "2"}, 
      "inputs": [[460, 0, 0], [468, 0, 0]]
    }, 
    {
      "op": "null", 
      "name": "dense2__layer_2_batch_norm_gamma", 
      "attr": {"eps": "0.0001"}, 
      "inputs": []
    }, 
    {
      "op": "null", 
      "name": "dense2__layer_2_batch_norm_beta", 
      "attr": {"eps": "0.0001"}, 
      "inputs": []
    }, 
    {
      "op": "null", 
      "name": "dense2__layer_2_batch_norm_moving_mean", 
      "attr": {
        "__init__": "[\"zero\", {}]", 
        "eps": "0.0001"
      }, 
      "inputs": []
    }, 
    {
      "op": "null", 
      "name": "dense2__layer_2_batch_norm_moving_var", 
      "attr": {
        "__init__": "[\"one\", {}]", 
        "eps": "0.0001"
      }, 
      "inputs": []
    }, 
    {
      "op": "BatchNorm", 
      "name": "dense2__layer_2_batch_norm", 
      "attr": {"eps": "0.0001"}, 
      "inputs": [[469, 0, 0], [470, 0, 0], [471, 0, 0], [472, 0, 1], [473, 0, 1]]
    }, 
    {
      "op": "Activation", 
      "name": "dense2__layer_2_relu", 
      "attr": {"act_type": "relu"}, 
      "inputs": [[474, 0, 0]]
    }, 
    {
      "op": "null", 
      "name": "dense2__layer_2_conv_weight", 
      "attr": {
        "kernel": "(3, 3)", 
        "no_bias": "True", 
        "num_filter": "8", 
        "pad": "(1, 1)", 
        "stride": "(1, 1)"
      }, 
      "inputs": []
    }, 
    {
      "op": "Convolution", 
      "name": "dense2__layer_2_conv", 
      "attr": {
        "kernel": "(3, 3)", 
        "no_bias": "True", 
        "num_filter": "8", 
        "pad": "(1, 1)", 
        "stride": "(1, 1)"
      }, 
      "inputs": [[475, 0, 0], [476, 0, 0]]
    }, 
    {
      "op": "Concat", 
      "name": "dense2__concat_2", 
      "attr": {"num_args": "2"}, 
      "inputs": [[469, 0, 0], [477, 0, 0]]
    }, 
    {
      "op": "null", 
      "name": "dense2__layer_3_batch_norm_gamma", 
      "attr": {"eps": "0.0001"}, 
      "inputs": []
    }, 
    {
      "op": "null", 
      "name": "dense2__layer_3_batch_norm_beta", 
      "attr": {"eps": "0.0001"}, 
      "inputs": []
    }, 
    {
      "op": "null", 
      "name": "dense2__layer_3_batch_norm_moving_mean", 
      "attr": {
        "__init__": "[\"zero\", {}]", 
        "eps": "0.0001"
      }, 
      "inputs": []
    }, 
    {
      "op": "null", 
      "name": "dense2__layer_3_batch_norm_moving_var", 
      "attr": {
        "__init__": "[\"one\", {}]", 
        "eps": "0.0001"
      }, 
      "inputs": []
    }, 
    {
      "op": "BatchNorm", 
      "name": "dense2__layer_3_batch_norm", 
      "attr": {"eps": "0.0001"}, 
      "inputs": [[478, 0, 0], [479, 0, 0], [480, 0, 0], [481, 0, 1], [482, 0, 1]]
    }, 
    {
      "op": "Activation", 
      "name": "dense2__layer_3_relu", 
      "attr": {"act_type": "relu"}, 
      "inputs": [[483, 0, 0]]
    }, 
    {
      "op": "null", 
      "name": "dense2__layer_3_conv_weight", 
      "attr": {
        "kernel": "(3, 3)", 
        "no_bias": "True", 
        "num_filter": "8", 
        "pad": "(1, 1)", 
        "stride": "(1, 1)"
      }, 
      "inputs": []
    }, 
    {
      "op": "Convolution", 
      "name": "dense2__layer_3_conv", 
      "attr": {
        "kernel": "(3, 3)", 
        "no_bias": "True", 
        "num_filter": "8", 
        "pad": "(1, 1)", 
        "stride": "(1, 1)"
      }, 
      "inputs": [[484, 0, 0], [485, 0, 0]]
    }, 
    {
      "op": "Concat", 
      "name": "dense2__concat_3", 
      "attr": {"num_args": "2"}, 
      "inputs": [[478, 0, 0], [486, 0, 0]]
    }, 
    {
      "op": "null", 
      "name": "dense2__layer_4_batch_norm_gamma", 
      "attr": {"eps": "0.0001"}, 
      "inputs": []
    }, 
    {
      "op": "null", 
      "name": "dense2__layer_4_batch_norm_beta", 
      "attr": {"eps": "0.0001"}, 
      "inputs": []
    }, 
    {
      "op": "null", 
      "name": "dense2__layer_4_batch_norm_moving_mean", 
      "attr": {
        "__init__": "[\"zero\", {}]", 
        "eps": "0.0001"
      }, 
      "inputs": []
    }, 
    {
      "op": "null", 
      "name": "dense2__layer_4_batch_norm_moving_var", 
      "attr": {
        "__init__": "[\"one\", {}]", 
        "eps": "0.0001"
      }, 
      "inputs": []
    }, 
    {
      "op": "BatchNorm", 
      "name": "dense2__layer_4_batch_norm", 
      "attr": {"eps": "0.0001"}, 
      "inputs": [[487, 0, 0], [488, 0, 0], [489, 0, 0], [490, 0, 1], [491, 0, 1]]
    }, 
    {
      "op": "Activation", 
      "name": "dense2__layer_4_relu", 
      "attr": {"act_type": "relu"}, 
      "inputs": [[492, 0, 0]]
    }, 
    {
      "op": "null", 
      "name": "dense2__layer_4_conv_weight", 
      "attr": {
        "kernel": "(3, 3)", 
        "no_bias": "True", 
        "num_filter": "8", 
        "pad": "(1, 1)", 
        "stride": "(1, 1)"
      }, 
      "inputs": []
    }, 
    {
      "op": "Convolution", 
      "name": "dense2__layer_4_conv", 
      "attr": {
        "kernel": "(3, 3)", 
        "no_bias": "True", 
        "num_filter": "8", 
        "pad": "(1, 1)", 
        "stride": "(1, 1)"
      }, 
      "inputs": [[493, 0, 0], [494, 0, 0]]
    }, 
    {
      "op": "Concat", 
      "name": "dense2__concat_4", 
      "attr": {"num_args": "2"}, 
      "inputs": [[487, 0, 0], [495, 0, 0]]
    }, 
    {
      "op": "null", 
      "name": "dense2__layer_5_batch_norm_gamma", 
      "attr": {"eps": "0.0001"}, 
      "inputs": []
    }, 
    {
      "op": "null", 
      "name": "dense2__layer_5_batch_norm_beta", 
      "attr": {"eps": "0.0001"}, 
      "inputs": []
    }, 
    {
      "op": "null", 
      "name": "dense2__layer_5_batch_norm_moving_mean", 
      "attr": {
        "__init__": "[\"zero\", {}]", 
        "eps": "0.0001"
      }, 
      "inputs": []
    }, 
    {
      "op": "null", 
      "name": "dense2__layer_5_batch_norm_moving_var", 
      "attr": {
        "__init__": "[\"one\", {}]", 
        "eps": "0.0001"
      }, 
      "inputs": []
    }, 
    {
      "op": "BatchNorm", 
      "name": "dense2__layer_5_batch_norm", 
      "attr": {"eps": "0.0001"}, 
      "inputs": [[496, 0, 0], [497, 0, 0], [498, 0, 0], [499, 0, 1], [500, 0, 1]]
    }, 
    {
      "op": "Activation", 
      "name": "dense2__layer_5_relu", 
      "attr": {"act_type": "relu"}, 
      "inputs": [[501, 0, 0]]
    }, 
    {
      "op": "null", 
      "name": "dense2__layer_5_conv_weight", 
      "attr": {
        "kernel": "(3, 3)", 
        "no_bias": "True", 
        "num_filter": "8", 
        "pad": "(1, 1)", 
        "stride": "(1, 1)"
      }, 
      "inputs": []
    }, 
    {
      "op": "Convolution", 
      "name": "dense2__layer_5_conv", 
      "attr": {
        "kernel": "(3, 3)", 
        "no_bias": "True", 
        "num_filter": "8", 
        "pad": "(1, 1)", 
        "stride": "(1, 1)"
      }, 
      "inputs": [[502, 0, 0], [503, 0, 0]]
    }, 
    {
      "op": "Concat", 
      "name": "dense2__concat_5", 
      "attr": {"num_args": "2"}, 
      "inputs": [[496, 0, 0], [504, 0, 0]]
    }, 
    {
      "op": "null", 
      "name": "dense2__layer_6_batch_norm_gamma", 
      "attr": {"eps": "0.0001"}, 
      "inputs": []
    }, 
    {
      "op": "null", 
      "name": "dense2__layer_6_batch_norm_beta", 
      "attr": {"eps": "0.0001"}, 
      "inputs": []
    }, 
    {
      "op": "null", 
      "name": "dense2__layer_6_batch_norm_moving_mean", 
      "attr": {
        "__init__": "[\"zero\", {}]", 
        "eps": "0.0001"
      }, 
      "inputs": []
    }, 
    {
      "op": "null", 
      "name": "dense2__layer_6_batch_norm_moving_var", 
      "attr": {
        "__init__": "[\"one\", {}]", 
        "eps": "0.0001"
      }, 
      "inputs": []
    }, 
    {
      "op": "BatchNorm", 
      "name": "dense2__layer_6_batch_norm", 
      "attr": {"eps": "0.0001"}, 
      "inputs": [[505, 0, 0], [506, 0, 0], [507, 0, 0], [508, 0, 1], [509, 0, 1]]
    }, 
    {
      "op": "Activation", 
      "name": "dense2__layer_6_relu", 
      "attr": {"act_type": "relu"}, 
      "inputs": [[510, 0, 0]]
    }, 
    {
      "op": "null", 
      "name": "dense2__layer_6_conv_weight", 
      "attr": {
        "kernel": "(3, 3)", 
        "no_bias": "True", 
        "num_filter": "8", 
        "pad": "(1, 1)", 
        "stride": "(1, 1)"
      }, 
      "inputs": []
    }, 
    {
      "op": "Convolution", 
      "name": "dense2__layer_6_conv", 
      "attr": {
        "kernel": "(3, 3)", 
        "no_bias": "True", 
        "num_filter": "8", 
        "pad": "(1, 1)", 
        "stride": "(1, 1)"
      }, 
      "inputs": [[511, 0, 0], [512, 0, 0]]
    }, 
    {
      "op": "Concat", 
      "name": "dense2__concat_6", 
      "attr": {"num_args": "2"}, 
      "inputs": [[505, 0, 0], [513, 0, 0]]
    }, 
    {
      "op": "null", 
      "name": "dense2__layer_7_batch_norm_gamma", 
      "attr": {"eps": "0.0001"}, 
      "inputs": []
    }, 
    {
      "op": "null", 
      "name": "dense2__layer_7_batch_norm_beta", 
      "attr": {"eps": "0.0001"}, 
      "inputs": []
    }, 
    {
      "op": "null", 
      "name": "dense2__layer_7_batch_norm_moving_mean", 
      "attr": {
        "__init__": "[\"zero\", {}]", 
        "eps": "0.0001"
      }, 
      "inputs": []
    }, 
    {
      "op": "null", 
      "name": "dense2__layer_7_batch_norm_moving_var", 
      "attr": {
        "__init__": "[\"one\", {}]", 
        "eps": "0.0001"
      }, 
      "inputs": []
    }, 
    {
      "op": "BatchNorm", 
      "name": "dense2__layer_7_batch_norm", 
      "attr": {"eps": "0.0001"}, 
      "inputs": [[514, 0, 0], [515, 0, 0], [516, 0, 0], [517, 0, 1], [518, 0, 1]]
    }, 
    {
      "op": "Activation", 
      "name": "dense2__layer_7_relu", 
      "attr": {"act_type": "relu"}, 
      "inputs": [[519, 0, 0]]
    }, 
    {
      "op": "null", 
      "name": "dense2__layer_7_conv_weight", 
      "attr": {
        "kernel": "(3, 3)", 
        "no_bias": "True", 
        "num_filter": "8", 
        "pad": "(1, 1)", 
        "stride": "(1, 1)"
      }, 
      "inputs": []
    }, 
    {
      "op": "Convolution", 
      "name": "dense2__layer_7_conv", 
      "attr": {
        "kernel": "(3, 3)", 
        "no_bias": "True", 
        "num_filter": "8", 
        "pad": "(1, 1)", 
        "stride": "(1, 1)"
      }, 
      "inputs": [[520, 0, 0], [521, 0, 0]]
    }, 
    {
      "op": "Concat", 
      "name": "dense2__concat_7", 
      "attr": {"num_args": "2"}, 
      "inputs": [[514, 0, 0], [522, 0, 0]]
    }, 
    {
      "op": "null", 
      "name": "trans2__batch_norm_gamma", 
      "attr": {"eps": "0.0001"}, 
      "inputs": []
    }, 
    {
      "op": "null", 
      "name": "trans2__batch_norm_beta", 
      "attr": {"eps": "0.0001"}, 
      "inputs": []
    }, 
    {
      "op": "null", 
      "name": "trans2__batch_norm_moving_mean", 
      "attr": {
        "__init__": "[\"zero\", {}]", 
        "eps": "0.0001"
      }, 
      "inputs": []
    }, 
    {
      "op": "null", 
      "name": "trans2__batch_norm_moving_var", 
      "attr": {
        "__init__": "[\"one\", {}]", 
        "eps": "0.0001"
      }, 
      "inputs": []
    }, 
    {
      "op": "BatchNorm", 
      "name": "trans2__batch_norm", 
      "attr": {"eps": "0.0001"}, 
      "inputs": [[523, 0, 0], [524, 0, 0], [525, 0, 0], [526, 0, 1], [527, 0, 1]]
    }, 
    {
      "op": "Activation", 
      "name": "trans2__relu", 
      "attr": {"act_type": "relu"}, 
      "inputs": [[528, 0, 0]]
    }, 
    {
      "op": "null", 
      "name": "trans2__dconv_weight", 
      "attr": {
        "kernel": "(4, 4)", 
        "no_bias": "True", 
        "num_filter": "32", 
        "pad": "(1, 1)", 
        "stride": "(2, 2)"
      }, 
      "inputs": []
    }, 
    {
      "op": "Deconvolution", 
      "name": "trans2__dconv", 
      "attr": {
        "kernel": "(4, 4)", 
        "no_bias": "True", 
        "num_filter": "32", 
        "pad": "(1, 1)", 
        "stride": "(2, 2)"
      }, 
      "inputs": [[529, 0, 0], [530, 0, 0]]
    }, 
    {
      "op": "null", 
      "name": "dense3__layer_0_batch_norm_gamma", 
      "attr": {"eps": "0.0001"}, 
      "inputs": []
    }, 
    {
      "op": "null", 
      "name": "dense3__layer_0_batch_norm_beta", 
      "attr": {"eps": "0.0001"}, 
      "inputs": []
    }, 
    {
      "op": "null", 
      "name": "dense3__layer_0_batch_norm_moving_mean", 
      "attr": {
        "__init__": "[\"zero\", {}]", 
        "eps": "0.0001"
      }, 
      "inputs": []
    }, 
    {
      "op": "null", 
      "name": "dense3__layer_0_batch_norm_moving_var", 
      "attr": {
        "__init__": "[\"one\", {}]", 
        "eps": "0.0001"
      }, 
      "inputs": []
    }, 
    {
      "op": "BatchNorm", 
      "name": "dense3__layer_0_batch_norm", 
      "attr": {"eps": "0.0001"}, 
      "inputs": [[531, 0, 0], [532, 0, 0], [533, 0, 0], [534, 0, 1], [535, 0, 1]]
    }, 
    {
      "op": "Activation", 
      "name": "dense3__layer_0_relu", 
      "attr": {"act_type": "relu"}, 
      "inputs": [[536, 0, 0]]
    }, 
    {
      "op": "null", 
      "name": "dense3__layer_0_conv_weight", 
      "attr": {
        "kernel": "(3, 3)", 
        "no_bias": "True", 
        "num_filter": "8", 
        "pad": "(1, 1)", 
        "stride": "(1, 1)"
      }, 
      "inputs": []
    }, 
    {
      "op": "Convolution", 
      "name": "dense3__layer_0_conv", 
      "attr": {
        "kernel": "(3, 3)", 
        "no_bias": "True", 
        "num_filter": "8", 
        "pad": "(1, 1)", 
        "stride": "(1, 1)"
      }, 
      "inputs": [[537, 0, 0], [538, 0, 0]]
    }, 
    {
      "op": "Concat", 
      "name": "dense3__concat_0", 
      "attr": {"num_args": "2"}, 
      "inputs": [[531, 0, 0], [539, 0, 0]]
    }, 
    {
      "op": "null", 
      "name": "dense3__layer_1_batch_norm_gamma", 
      "attr": {"eps": "0.0001"}, 
      "inputs": []
    }, 
    {
      "op": "null", 
      "name": "dense3__layer_1_batch_norm_beta", 
      "attr": {"eps": "0.0001"}, 
      "inputs": []
    }, 
    {
      "op": "null", 
      "name": "dense3__layer_1_batch_norm_moving_mean", 
      "attr": {
        "__init__": "[\"zero\", {}]", 
        "eps": "0.0001"
      }, 
      "inputs": []
    }, 
    {
      "op": "null", 
      "name": "dense3__layer_1_batch_norm_moving_var", 
      "attr": {
        "__init__": "[\"one\", {}]", 
        "eps": "0.0001"
      }, 
      "inputs": []
    }, 
    {
      "op": "BatchNorm", 
      "name": "dense3__layer_1_batch_norm", 
      "attr": {"eps": "0.0001"}, 
      "inputs": [[540, 0, 0], [541, 0, 0], [542, 0, 0], [543, 0, 1], [544, 0, 1]]
    }, 
    {
      "op": "Activation", 
      "name": "dense3__layer_1_relu", 
      "attr": {"act_type": "relu"}, 
      "inputs": [[545, 0, 0]]
    }, 
    {
      "op": "null", 
      "name": "dense3__layer_1_conv_weight", 
      "attr": {
        "kernel": "(3, 3)", 
        "no_bias": "True", 
        "num_filter": "8", 
        "pad": "(1, 1)", 
        "stride": "(1, 1)"
      }, 
      "inputs": []
    }, 
    {
      "op": "Convolution", 
      "name": "dense3__layer_1_conv", 
      "attr": {
        "kernel": "(3, 3)", 
        "no_bias": "True", 
        "num_filter": "8", 
        "pad": "(1, 1)", 
        "stride": "(1, 1)"
      }, 
      "inputs": [[546, 0, 0], [547, 0, 0]]
    }, 
    {
      "op": "Concat", 
      "name": "dense3__concat_1", 
      "attr": {"num_args": "2"}, 
      "inputs": [[540, 0, 0], [548, 0, 0]]
    }, 
    {
      "op": "null", 
      "name": "dense3__layer_2_batch_norm_gamma", 
      "attr": {"eps": "0.0001"}, 
      "inputs": []
    }, 
    {
      "op": "null", 
      "name": "dense3__layer_2_batch_norm_beta", 
      "attr": {"eps": "0.0001"}, 
      "inputs": []
    }, 
    {
      "op": "null", 
      "name": "dense3__layer_2_batch_norm_moving_mean", 
      "attr": {
        "__init__": "[\"zero\", {}]", 
        "eps": "0.0001"
      }, 
      "inputs": []
    }, 
    {
      "op": "null", 
      "name": "dense3__layer_2_batch_norm_moving_var", 
      "attr": {
        "__init__": "[\"one\", {}]", 
        "eps": "0.0001"
      }, 
      "inputs": []
    }, 
    {
      "op": "BatchNorm", 
      "name": "dense3__layer_2_batch_norm", 
      "attr": {"eps": "0.0001"}, 
      "inputs": [[549, 0, 0], [550, 0, 0], [551, 0, 0], [552, 0, 1], [553, 0, 1]]
    }, 
    {
      "op": "Activation", 
      "name": "dense3__layer_2_relu", 
      "attr": {"act_type": "relu"}, 
      "inputs": [[554, 0, 0]]
    }, 
    {
      "op": "null", 
      "name": "dense3__layer_2_conv_weight", 
      "attr": {
        "kernel": "(3, 3)", 
        "no_bias": "True", 
        "num_filter": "8", 
        "pad": "(1, 1)", 
        "stride": "(1, 1)"
      }, 
      "inputs": []
    }, 
    {
      "op": "Convolution", 
      "name": "dense3__layer_2_conv", 
      "attr": {
        "kernel": "(3, 3)", 
        "no_bias": "True", 
        "num_filter": "8", 
        "pad": "(1, 1)", 
        "stride": "(1, 1)"
      }, 
      "inputs": [[555, 0, 0], [556, 0, 0]]
    }, 
    {
      "op": "Concat", 
      "name": "dense3__concat_2", 
      "attr": {"num_args": "2"}, 
      "inputs": [[549, 0, 0], [557, 0, 0]]
    }, 
    {
      "op": "null", 
      "name": "dense3__layer_3_batch_norm_gamma", 
      "attr": {"eps": "0.0001"}, 
      "inputs": []
    }, 
    {
      "op": "null", 
      "name": "dense3__layer_3_batch_norm_beta", 
      "attr": {"eps": "0.0001"}, 
      "inputs": []
    }, 
    {
      "op": "null", 
      "name": "dense3__layer_3_batch_norm_moving_mean", 
      "attr": {
        "__init__": "[\"zero\", {}]", 
        "eps": "0.0001"
      }, 
      "inputs": []
    }, 
    {
      "op": "null", 
      "name": "dense3__layer_3_batch_norm_moving_var", 
      "attr": {
        "__init__": "[\"one\", {}]", 
        "eps": "0.0001"
      }, 
      "inputs": []
    }, 
    {
      "op": "BatchNorm", 
      "name": "dense3__layer_3_batch_norm", 
      "attr": {"eps": "0.0001"}, 
      "inputs": [[558, 0, 0], [559, 0, 0], [560, 0, 0], [561, 0, 1], [562, 0, 1]]
    }, 
    {
      "op": "Activation", 
      "name": "dense3__layer_3_relu", 
      "attr": {"act_type": "relu"}, 
      "inputs": [[563, 0, 0]]
    }, 
    {
      "op": "null", 
      "name": "dense3__layer_3_conv_weight", 
      "attr": {
        "kernel": "(3, 3)", 
        "no_bias": "True", 
        "num_filter": "8", 
        "pad": "(1, 1)", 
        "stride": "(1, 1)"
      }, 
      "inputs": []
    }, 
    {
      "op": "Convolution", 
      "name": "dense3__layer_3_conv", 
      "attr": {
        "kernel": "(3, 3)", 
        "no_bias": "True", 
        "num_filter": "8", 
        "pad": "(1, 1)", 
        "stride": "(1, 1)"
      }, 
      "inputs": [[564, 0, 0], [565, 0, 0]]
    }, 
    {
      "op": "Concat", 
      "name": "dense3__concat_3", 
      "attr": {"num_args": "2"}, 
      "inputs": [[558, 0, 0], [566, 0, 0]]
    }, 
    {
      "op": "null", 
      "name": "trans3__batch_norm_gamma", 
      "attr": {"eps": "0.0001"}, 
      "inputs": []
    }, 
    {
      "op": "null", 
      "name": "trans3__batch_norm_beta", 
      "attr": {"eps": "0.0001"}, 
      "inputs": []
    }, 
    {
      "op": "null", 
      "name": "trans3__batch_norm_moving_mean", 
      "attr": {
        "__init__": "[\"zero\", {}]", 
        "eps": "0.0001"
      }, 
      "inputs": []
    }, 
    {
      "op": "null", 
      "name": "trans3__batch_norm_moving_var", 
      "attr": {
        "__init__": "[\"one\", {}]", 
        "eps": "0.0001"
      }, 
      "inputs": []
    }, 
    {
      "op": "BatchNorm", 
      "name": "trans3__batch_norm", 
      "attr": {"eps": "0.0001"}, 
      "inputs": [[567, 0, 0], [568, 0, 0], [569, 0, 0], [570, 0, 1], [571, 0, 1]]
    }, 
    {
      "op": "Activation", 
      "name": "trans3__relu", 
      "attr": {"act_type": "relu"}, 
      "inputs": [[572, 0, 0]]
    }, 
    {
      "op": "null", 
      "name": "trans3__dconv_weight", 
      "attr": {
        "kernel": "(4, 4)", 
        "no_bias": "True", 
        "num_filter": "16", 
        "pad": "(1, 1)", 
        "stride": "(2, 2)"
      }, 
      "inputs": []
    }, 
    {
      "op": "Deconvolution", 
      "name": "trans3__dconv", 
      "attr": {
        "kernel": "(4, 4)", 
        "no_bias": "True", 
        "num_filter": "16", 
        "pad": "(1, 1)", 
        "stride": "(2, 2)"
      }, 
      "inputs": [[573, 0, 0], [574, 0, 0]]
    }, 
    {
      "op": "null", 
      "name": "dense4__layer_0_batch_norm_gamma", 
      "attr": {"eps": "0.0001"}, 
      "inputs": []
    }, 
    {
      "op": "null", 
      "name": "dense4__layer_0_batch_norm_beta", 
      "attr": {"eps": "0.0001"}, 
      "inputs": []
    }, 
    {
      "op": "null", 
      "name": "dense4__layer_0_batch_norm_moving_mean", 
      "attr": {
        "__init__": "[\"zero\", {}]", 
        "eps": "0.0001"
      }, 
      "inputs": []
    }, 
    {
      "op": "null", 
      "name": "dense4__layer_0_batch_norm_moving_var", 
      "attr": {
        "__init__": "[\"one\", {}]", 
        "eps": "0.0001"
      }, 
      "inputs": []
    }, 
    {
      "op": "BatchNorm", 
      "name": "dense4__layer_0_batch_norm", 
      "attr": {"eps": "0.0001"}, 
      "inputs": [[575, 0, 0], [576, 0, 0], [577, 0, 0], [578, 0, 1], [579, 0, 1]]
    }, 
    {
      "op": "Activation", 
      "name": "dense4__layer_0_relu", 
      "attr": {"act_type": "relu"}, 
      "inputs": [[580, 0, 0]]
    }, 
    {
      "op": "null", 
      "name": "dense4__layer_0_conv_weight", 
      "attr": {
        "kernel": "(3, 3)", 
        "no_bias": "True", 
        "num_filter": "8", 
        "pad": "(1, 1)", 
        "stride": "(1, 1)"
      }, 
      "inputs": []
    }, 
    {
      "op": "Convolution", 
      "name": "dense4__layer_0_conv", 
      "attr": {
        "kernel": "(3, 3)", 
        "no_bias": "True", 
        "num_filter": "8", 
        "pad": "(1, 1)", 
        "stride": "(1, 1)"
      }, 
      "inputs": [[581, 0, 0], [582, 0, 0]]
    }, 
    {
      "op": "Concat", 
      "name": "dense4__concat_0", 
      "attr": {"num_args": "2"}, 
      "inputs": [[575, 0, 0], [583, 0, 0]]
    }, 
    {
      "op": "null", 
      "name": "dense4__layer_1_batch_norm_gamma", 
      "attr": {"eps": "0.0001"}, 
      "inputs": []
    }, 
    {
      "op": "null", 
      "name": "dense4__layer_1_batch_norm_beta", 
      "attr": {"eps": "0.0001"}, 
      "inputs": []
    }, 
    {
      "op": "null", 
      "name": "dense4__layer_1_batch_norm_moving_mean", 
      "attr": {
        "__init__": "[\"zero\", {}]", 
        "eps": "0.0001"
      }, 
      "inputs": []
    }, 
    {
      "op": "null", 
      "name": "dense4__layer_1_batch_norm_moving_var", 
      "attr": {
        "__init__": "[\"one\", {}]", 
        "eps": "0.0001"
      }, 
      "inputs": []
    }, 
    {
      "op": "BatchNorm", 
      "name": "dense4__layer_1_batch_norm", 
      "attr": {"eps": "0.0001"}, 
      "inputs": [[584, 0, 0], [585, 0, 0], [586, 0, 0], [587, 0, 1], [588, 0, 1]]
    }, 
    {
      "op": "Activation", 
      "name": "dense4__layer_1_relu", 
      "attr": {"act_type": "relu"}, 
      "inputs": [[589, 0, 0]]
    }, 
    {
      "op": "null", 
      "name": "dense4__layer_1_conv_weight", 
      "attr": {
        "kernel": "(3, 3)", 
        "no_bias": "True", 
        "num_filter": "8", 
        "pad": "(1, 1)", 
        "stride": "(1, 1)"
      }, 
      "inputs": []
    }, 
    {
      "op": "Convolution", 
      "name": "dense4__layer_1_conv", 
      "attr": {
        "kernel": "(3, 3)", 
        "no_bias": "True", 
        "num_filter": "8", 
        "pad": "(1, 1)", 
        "stride": "(1, 1)"
      }, 
      "inputs": [[590, 0, 0], [591, 0, 0]]
    }, 
    {
      "op": "Concat", 
      "name": "dense4__concat_1", 
      "attr": {"num_args": "2"}, 
      "inputs": [[584, 0, 0], [592, 0, 0]]
    }, 
    {
      "op": "null", 
      "name": "trans4__batch_norm_gamma", 
      "attr": {"eps": "0.0001"}, 
      "inputs": []
    }, 
    {
      "op": "null", 
      "name": "trans4__batch_norm_beta", 
      "attr": {"eps": "0.0001"}, 
      "inputs": []
    }, 
    {
      "op": "null", 
      "name": "trans4__batch_norm_moving_mean", 
      "attr": {
        "__init__": "[\"zero\", {}]", 
        "eps": "0.0001"
      }, 
      "inputs": []
    }, 
    {
      "op": "null", 
      "name": "trans4__batch_norm_moving_var", 
      "attr": {
        "__init__": "[\"one\", {}]", 
        "eps": "0.0001"
      }, 
      "inputs": []
    }, 
    {
      "op": "BatchNorm", 
      "name": "trans4__batch_norm", 
      "attr": {"eps": "0.0001"}, 
      "inputs": [[593, 0, 0], [594, 0, 0], [595, 0, 0], [596, 0, 1], [597, 0, 1]]
    }, 
    {
      "op": "Activation", 
      "name": "trans4__relu", 
      "attr": {"act_type": "relu"}, 
      "inputs": [[598, 0, 0]]
    }, 
    {
      "op": "null", 
      "name": "trans4__dconv_weight", 
      "attr": {
        "kernel": "(4, 4)", 
        "no_bias": "True", 
        "num_filter": "8", 
        "pad": "(1, 1)", 
        "stride": "(2, 2)"
      }, 
      "inputs": []
    }, 
    {
      "op": "Deconvolution", 
      "name": "trans4__dconv", 
      "attr": {
        "kernel": "(4, 4)", 
        "no_bias": "True", 
        "num_filter": "8", 
        "pad": "(1, 1)", 
        "stride": "(2, 2)"
      }, 
      "inputs": [[599, 0, 0], [600, 0, 0]]
    }, 
    {
      "op": "null", 
      "name": "last__layer_0_batch_norm_gamma", 
      "attr": {"eps": "0.0001"}, 
      "inputs": []
    }, 
    {
      "op": "null", 
      "name": "last__layer_0_batch_norm_beta", 
      "attr": {"eps": "0.0001"}, 
      "inputs": []
    }, 
    {
      "op": "null", 
      "name": "last__layer_0_batch_norm_moving_mean", 
      "attr": {
        "__init__": "[\"zero\", {}]", 
        "eps": "0.0001"
      }, 
      "inputs": []
    }, 
    {
      "op": "null", 
      "name": "last__layer_0_batch_norm_moving_var", 
      "attr": {
        "__init__": "[\"one\", {}]", 
        "eps": "0.0001"
      }, 
      "inputs": []
    }, 
    {
      "op": "BatchNorm", 
      "name": "last__layer_0_batch_norm", 
      "attr": {"eps": "0.0001"}, 
      "inputs": [[601, 0, 0], [602, 0, 0], [603, 0, 0], [604, 0, 1], [605, 0, 1]]
    }, 
    {
      "op": "Activation", 
      "name": "last__layer_0_relu", 
      "attr": {"act_type": "relu"}, 
      "inputs": [[606, 0, 0]]
    }, 
    {
      "op": "null", 
      "name": "last__layer_0_conv_weight", 
      "attr": {
        "kernel": "(3, 3)", 
        "no_bias": "True", 
        "num_filter": "8", 
        "pad": "(1, 1)", 
        "stride": "(1, 1)"
      }, 
      "inputs": []
    }, 
    {
      "op": "Convolution", 
      "name": "last__layer_0_conv", 
      "attr": {
        "kernel": "(3, 3)", 
        "no_bias": "True", 
        "num_filter": "8", 
        "pad": "(1, 1)", 
        "stride": "(1, 1)"
      }, 
      "inputs": [[607, 0, 0], [608, 0, 0]]
    }, 
    {
      "op": "Concat", 
      "name": "last__concat_0", 
      "attr": {"num_args": "2"}, 
      "inputs": [[601, 0, 0], [609, 0, 0]]
    }, 
    {
      "op": "null", 
      "name": "batch_norm_last_gamma", 
      "attr": {"eps": "0.0001"}, 
      "inputs": []
    }, 
    {
      "op": "null", 
      "name": "batch_norm_last_beta", 
      "attr": {"eps": "0.0001"}, 
      "inputs": []
    }, 
    {
      "op": "null", 
      "name": "batch_norm_last_moving_mean", 
      "attr": {
        "__init__": "[\"zero\", {}]", 
        "eps": "0.0001"
      }, 
      "inputs": []
    }, 
    {
      "op": "null", 
      "name": "batch_norm_last_moving_var", 
      "attr": {
        "__init__": "[\"one\", {}]", 
        "eps": "0.0001"
      }, 
      "inputs": []
    }, 
    {
      "op": "BatchNorm", 
      "name": "batch_norm_last", 
      "attr": {"eps": "0.0001"}, 
      "inputs": [[610, 0, 0], [611, 0, 0], [612, 0, 0], [613, 0, 1], [614, 0, 1]]
    }, 
    {
      "op": "Activation", 
      "name": "relu_last", 
      "attr": {"act_type": "relu"}, 
      "inputs": [[615, 0, 0]]
    }, 
    {
      "op": "null", 
      "name": "conv_last_weight", 
      "attr": {
        "kernel": "(1, 1)", 
        "no_bias": "True", 
        "num_filter": "3"
      }, 
      "inputs": []
    }, 
    {
      "op": "Convolution", 
      "name": "conv_last", 
      "attr": {
        "kernel": "(1, 1)", 
        "no_bias": "True", 
        "num_filter": "3"
      }, 
      "inputs": [[616, 0, 0], [617, 0, 0]]
    }, 
    {
      "op": "Activation", 
      "name": "tanh_last", 
      "attr": {"act_type": "tanh"}, 
      "inputs": [[618, 0, 0]]
    }
  ], 
  "arg_nodes": [
    0, 
    2, 
    4, 
    5, 
    6, 
    7, 
    10, 
    13, 
    14, 
    15, 
    16, 
    19, 
    22, 
    23, 
    24, 
    25, 
    28, 
    31, 
    32, 
    33, 
    34, 
    37, 
    40, 
    41, 
    42, 
    43, 
    46, 
    49, 
    50, 
    51, 
    52, 
    55, 
    58, 
    59, 
    60, 
    61, 
    64, 
    67, 
    68, 
    69, 
    70, 
    73, 
    76, 
    77, 
    78, 
    79, 
    82, 
    85, 
    86, 
    87, 
    88, 
    91, 
    94, 
    95, 
    96, 
    97, 
    100, 
    103, 
    104, 
    105, 
    106, 
    109, 
    112, 
    113, 
    114, 
    115, 
    118, 
    121, 
    122, 
    123, 
    124, 
    127, 
    130, 
    131, 
    132, 
    133, 
    136, 
    139, 
    140, 
    141, 
    142, 
    145, 
    148, 
    149, 
    150, 
    151, 
    154, 
    157, 
    158, 
    159, 
    160, 
    163, 
    166, 
    167, 
    168, 
    169, 
    172, 
    175, 
    176, 
    177, 
    178, 
    181, 
    184, 
    185, 
    186, 
    187, 
    190, 
    193, 
    194, 
    195, 
    196, 
    199, 
    202, 
    203, 
    204, 
    205, 
    208, 
    211, 
    212, 
    213, 
    214, 
    217, 
    220, 
    221, 
    222, 
    223, 
    226, 
    229, 
    230, 
    231, 
    232, 
    235, 
    238, 
    239, 
    240, 
    241, 
    244, 
    247, 
    248, 
    249, 
    250, 
    253, 
    256, 
    257, 
    258, 
    259, 
    262, 
    265, 
    266, 
    267, 
    268, 
    271, 
    274, 
    275, 
    276, 
    277, 
    280, 
    283, 
    284, 
    285, 
    286, 
    289, 
    292, 
    293, 
    294, 
    295, 
    298, 
    300, 
    301, 
    302, 
    303, 
    306, 
    309, 
    310, 
    311, 
    312, 
    315, 
    318, 
    319, 
    320, 
    321, 
    324, 
    327, 
    328, 
    329, 
    330, 
    333, 
    336, 
    337, 
    338, 
    339, 
    342, 
    345, 
    346, 
    347, 
    348, 
    351, 
    354, 
    355, 
    356, 
    357, 
    360, 
    363, 
    364, 
    365, 
    366, 
    369, 
    372, 
    373, 
    374, 
    375, 
    378, 
    381, 
    382, 
    383, 
    384, 
    387, 
    390, 
    391, 
    392, 
    393, 
    396, 
    399, 
    400, 
    401, 
    402, 
    405, 
    408, 
    409, 
    410, 
    411, 
    414, 
    417, 
    418, 
    419, 
    420, 
    423, 
    426, 
    427, 
    428, 
    429, 
    432, 
    435, 
    436, 
    437, 
    438, 
    441, 
    444, 
    445, 
    446, 
    447, 
    450, 
    452, 
    453, 
    454, 
    455, 
    458, 
    461, 
    462, 
    463, 
    464, 
    467, 
    470, 
    471, 
    472, 
    473, 
    476, 
    479, 
    480, 
    481, 
    482, 
    485, 
    488, 
    489, 
    490, 
    491, 
    494, 
    497, 
    498, 
    499, 
    500, 
    503, 
    506, 
    507, 
    508, 
    509, 
    512, 
    515, 
    516, 
    517, 
    518, 
    521, 
    524, 
    525, 
    526, 
    527, 
    530, 
    532, 
    533, 
    534, 
    535, 
    538, 
    541, 
    542, 
    543, 
    544, 
    547, 
    550, 
    551, 
    552, 
    553, 
    556, 
    559, 
    560, 
    561, 
    562, 
    565, 
    568, 
    569, 
    570, 
    571, 
    574, 
    576, 
    577, 
    578, 
    579, 
    582, 
    585, 
    586, 
    587, 
    588, 
    591, 
    594, 
    595, 
    596, 
    597, 
    600, 
    602, 
    603, 
    604, 
    605, 
    608, 
    611, 
    612, 
    613, 
    614, 
    617
  ], 
  "node_row_ptr": [
    0, 
    1, 
    2, 
    3, 
    4, 
    5, 
    6, 
    7, 
    8, 
    11, 
    12, 
    13, 
    14, 
    15, 
    16, 
    17, 
    18, 
    19, 
    22, 
    23, 
    24, 
    25, 
    26, 
    27, 
    28, 
    29, 
    30, 
    33, 
    34, 
    35, 
    36, 
    37, 
    38, 
    39, 
    40, 
    41, 
    44, 
    45, 
    46, 
    47, 
    48, 
    49, 
    50, 
    51, 
    52, 
    55, 
    56, 
    57, 
    58, 
    59, 
    60, 
    61, 
    62, 
    63, 
    66, 
    67, 
    68, 
    69, 
    70, 
    71, 
    72, 
    73, 
    74, 
    77, 
    78, 
    79, 
    80, 
    81, 
    82, 
    83, 
    84, 
    85, 
    88, 
    89, 
    90, 
    91, 
    92, 
    93, 
    94, 
    95, 
    96, 
    99, 
    100, 
    101, 
    102, 
    103, 
    104, 
    105, 
    106, 
    107, 
    110, 
    111, 
    112, 
    113, 
    114, 
    115, 
    116, 
    117, 
    118, 
    121, 
    122, 
    123, 
    124, 
    125, 
    126, 
    127, 
    128, 
    129, 
    132, 
    133, 
    134, 
    135, 
    136, 
    137, 
    138, 
    139, 
    140, 
    143, 
    144, 
    145, 
    146, 
    147, 
    148, 
    149, 
    150, 
    151, 
    154, 
    155, 
    156, 
    157, 
    158, 
    159, 
    160, 
    161, 
    162, 
    165, 
    166, 
    167, 
    168, 
    169, 
    170, 
    171, 
    172, 
    173, 
    176, 
    177, 
    178, 
    179, 
    180, 
    181, 
    182, 
    183, 
    184, 
    187, 
    188, 
    189, 
    190, 
    191, 
    192, 
    193, 
    194, 
    195, 
    198, 
    199, 
    200, 
    201, 
    202, 
    203, 
    204, 
    205, 
    206, 
    209, 
    210, 
    211, 
    212, 
    213, 
    214, 
    215, 
    216, 
    217, 
    220, 
    221, 
    222, 
    223, 
    224, 
    225, 
    226, 
    227, 
    228, 
    231, 
    232, 
    233, 
    234, 
    235, 
    236, 
    237, 
    238, 
    239, 
    242, 
    243, 
    244, 
    245, 
    246, 
    247, 
    248, 
    249, 
    250, 
    253, 
    254, 
    255, 
    256, 
    257, 
    258, 
    259, 
    260, 
    261, 
    264, 
    265, 
    266, 
    267, 
    268, 
    269, 
    270, 
    271, 
    272, 
    275, 
    276, 
    277, 
    278, 
    279, 
    280, 
    281, 
    282, 
    283, 
    286, 
    287, 
    288, 
    289, 
    290, 
    291, 
    292, 
    293, 
    294, 
    297, 
    298, 
    299, 
    300, 
    301, 
    302, 
    303, 
    304, 
    305, 
    308, 
    309, 
    310, 
    311, 
    312, 
    313, 
    314, 
    315, 
    316, 
    319, 
    320, 
    321, 
    322, 
    323, 
    324, 
    325, 
    326, 
    327, 
    330, 
    331, 
    332, 
    333, 
    334, 
    335, 
    336, 
    337, 
    338, 
    341, 
    342, 
    343, 
    344, 
    345, 
    346, 
    347, 
    348, 
    349, 
    352, 
    353, 
    354, 
    355, 
    356, 
    357, 
    358, 
    359, 
    360, 
    363, 
    364, 
    365, 
    366, 
    367, 
    368, 
    369, 
    370, 
    373, 
    374, 
    375, 
    376, 
    377, 
    378, 
    379, 
    380, 
    381, 
    384, 
    385, 
    386, 
    387, 
    388, 
    389, 
    390, 
    391, 
    392, 
    395, 
    396, 
    397, 
    398, 
    399, 
    400, 
    401, 
    402, 
    403, 
    406, 
    407, 
    408, 
    409, 
    410, 
    411, 
    412, 
    413, 
    414, 
    417, 
    418, 
    419, 
    420, 
    421, 
    422, 
    423, 
    424, 
    425, 
    428, 
    429, 
    430, 
    431, 
    432, 
    433, 
    434, 
    435, 
    436, 
    439, 
    440, 
    441, 
    442, 
    443, 
    444, 
    445, 
    446, 
    447, 
    450, 
    451, 
    452, 
    453, 
    454, 
    455, 
    456, 
    457, 
    458, 
    461, 
    462, 
    463, 
    464, 
    465, 
    466, 
    467, 
    468, 
    469, 
    472, 
    473, 
    474, 
    475, 
    476, 
    477, 
    478, 
    479, 
    480, 
    483, 
    484, 
    485, 
    486, 
    487, 
    488, 
    489, 
    490, 
    491, 
    494, 
    495, 
    496, 
    497, 
    498, 
    499, 
    500, 
    501, 
    502, 
    505, 
    506, 
    507, 
    508, 
    509, 
    510, 
    511, 
    512, 
    513, 
    516, 
    517, 
    518, 
    519, 
    520, 
    521, 
    522, 
    523, 
    524, 
    527, 
    528, 
    529, 
    530, 
    531, 
    532, 
    533, 
    534, 
    535, 
    538, 
    539, 
    540, 
    541, 
    542, 
    543, 
    544, 
    545, 
    546, 
    549, 
    550, 
    551, 
    552, 
    553, 
    554, 
    555, 
    556, 
    559, 
    560, 
    561, 
    562, 
    563, 
    564, 
    565, 
    566, 
    567, 
    570, 
    571, 
    572, 
    573, 
    574, 
    575, 
    576, 
    577, 
    578, 
    581, 
    582, 
    583, 
    584, 
    585, 
    586, 
    587, 
    588, 
    589, 
    592, 
    593, 
    594, 
    595, 
    596, 
    597, 
    598, 
    599, 
    600, 
    603, 
    604, 
    605, 
    606, 
    607, 
    608, 
    609, 
    610, 
    611, 
    614, 
    615, 
    616, 
    617, 
    618, 
    619, 
    620, 
    621, 
    622, 
    625, 
    626, 
    627, 
    628, 
    629, 
    630, 
    631, 
    632, 
    633, 
    636, 
    637, 
    638, 
    639, 
    640, 
    641, 
    642, 
    643, 
    644, 
    647, 
    648, 
    649, 
    650, 
    651, 
    652, 
    653, 
    654, 
    657, 
    658, 
    659, 
    660, 
    661, 
    662, 
    663, 
    664, 
    665, 
    668, 
    669, 
    670, 
    671, 
    672, 
    673, 
    674, 
    675, 
    676, 
    679, 
    680, 
    681, 
    682, 
    683, 
    684, 
    685, 
    686, 
    687, 
    690, 
    691, 
    692, 
    693, 
    694, 
    695, 
    696, 
    697, 
    698, 
    701, 
    702, 
    703, 
    704, 
    705, 
    706, 
    707, 
    708, 
    711, 
    712, 
    713, 
    714, 
    715, 
    716, 
    717, 
    718, 
    719, 
    722, 
    723, 
    724, 
    725, 
    726, 
    727, 
    728, 
    729, 
    730, 
    733, 
    734, 
    735, 
    736, 
    737, 
    738, 
    739, 
    740, 
    743, 
    744, 
    745, 
    746, 
    747, 
    748, 
    749, 
    750, 
    751, 
    754, 
    755, 
    756, 
    757, 
    758
  ], 
  "heads": [[619, 0, 0]], 
  "attrs": {"mxnet_version": ["int", 1000]}
}